model/keypoint_classifier/keypoint_classifier.tflite (tflite, 6676 bytes, 6 tensors)

sequential/dense/BiasAdd/ReadVariableOp f4 [20]
0.15897258 0.15455168 -0.1557052 0.2764782 0.035787743 -0.75736654 -0.116431765 0.018491812
0.15315372 -0.26117823 0.4672104 0.15577541 0.27685004 -0.10184853 0.017693363 -0.0050069015
0.3354951 0.5113098 -0.23022813 -0.44949928
00000000: b5c9 223e cc42 1e3e 2f71 1fbe 8d8e 8d3e
00000010: 2b96 123d c6e2 41bf c773 eebd 247c 973c
00000020: 54d4 1c3e 27b9 85be 3436 ef3e 9783 1f3e
00000030: 4abf 8d3e f695 d0bd acf1 903c ef10 a4bb
00000040: 04c6 ab3e 33e5 023f ecc0 6bbe c524 e6be

sequential/dense_2/BiasAdd/ReadVariableOp f4 [8]
0.35567227 0.53229 0.22868879 -0.39664233 -0.018567547 1.0315359 0.13453485 -2.2572994
00000000: ad1a b63e 2844 083f 652d 6a3e b414 cbbe
00000010: f81a 98bc 5e09 843f 81c3 093e 9877 10c0

sequential/dense_1/BiasAdd/ReadVariableOp f4 [10]
-0.14617641 0.44152296 0.008869609 0.27836415 0.059231617 0.120409176 0.31353277 0.4473247
0.03822884 -0.48284528
00000000: 45af 15be 4c0f e23e d651 113c bf85 8e3e
00000010: da9c 723d 1699 f63d 5e87 a03e be07 e53e
00000020: d895 1c3d 7f37 f7be

sequential/dense/MatMul f4 [20, 42]
0.14547667 0.016771734 0.3569812 0.9133164 0.24312598 -0.10116753 -0.21376985 0.881309
-0.39677498 -0.3660047 -0.39779228 -0.13960774 -0.068243906 0.58010054 -0.4534335 0.5475038
0.14007415 0.26149127 -0.2522282 -0.5259414 0.2612901 0.3223824 0.5525921 -0.07996514
-0.16057523 -0.65729994 0.43209514 -0.2307704 0.5302795 0.058769684 -0.17540276 -0.26047358
-0.46071655 -0.71159714 -0.22269274 0.049029954 0.08821653 0.55121297 -0.21904948 0.1864788
-0.17736872 -0.9105403 -0.3031359 -0.2791477 0.8540298 0.42959267 0.6076887 -0.06575551
0.31118616 -0.6072131 0.6979615 0.0206025 -1.4992796 0.3279836 1.0675721 -0.31522152
0.7627952 0.13558029 0.44905132 0.027938426 -0.7870892 0.043677412 -0.027108585 0.03737267
0.11470015 0.13034336 0.26587787 0.45818833 -0.114941515 0.112977706 -0.030452339 -0.34692615
-0.11393267 -0.21499112 0.6519856 -0.49876198 0.42534146 -0.24410006 -0.26073444 0.08256041
-0.612712 0.3882532 -0.7676506 0.4768067 -0.28394464 0.08742672 0.2804288 0.0914756
0.5069305 0.01608912 1.0676782 -0.49912307 1.528867 1.1794778 -0.70747393 0.25049588
-0.89037514 -0.00062914717 -0.454926 -0.45653296 0.6139849 -0.8541468 -0.538896 0.7546308
-0.34203458 -0.279066 -0.49494436 0.0032501158 0.16439979 0.1252871 0.036257263 0.45679677
0.23190229 0.06166465 -0.5295026 -0.73699045 -0.46564 -0.6268618 1.7468902 0.28016338
1.4386866 -0.1842159 0.7479916 -0.057398804 0.3781878 0.15250641 -0.10043144 -0.12701337
-0.07003007 0.15724471 0.12289775 -0.25182062 -0.69140434 0.2312689 -0.9968337 0.5834436
0.32113788 -1.0152972 0.86551005 -0.42455387 0.4508982 -0.42664143 0.70013547 -0.45441204
0.24147184 -0.40452144 0.06547727 -0.55659074 0.20477892 0.28818518 0.22058864 0.13778678
0.5923188 -0.3742219 0.4277939 0.2542698 0.115555696 0.14762592 -0.7268989 0.27346957
-0.42669827 0.2784261 -0.120116085 0.5688242 -0.013548445 0.2570727 -0.317681 0.24916501
-0.1860161 -0.17340292 -0.028261699 -0.13813955 -0.2050908 0.04348188 0.5212201 -0.25088271
-0.23012237 -0.94071496 -0.05463544 -0.41177568 -0.007993303 0.19073485 0.09744966 0.75363886
0.21287134 1.5726471 -0.31047216 -0.23273957 -0.28962246 0.4051706 -0.22552991 -0.58321494
0.30925393 -0.8715778 0.036155928 0.02781284 0.11718366 0.58492684 -0.29384756 -0.16501378
0.19089727 -0.44609255 0.05697643 0.74970627 0.033039935 0.48771673 -0.22524309 -0.5621123
0.1627451 -0.52078414 0.20062321 0.015880764 0.7905852 -0.40643585 0.5765722 0.18876591
-0.3450651 -0.49859473 -0.5867681 0.21437658 -0.01941106 -0.08639045 0.44000205 -0.25965524
-0.57378435 0.2606646 -1.6960347 -0.19327897 -0.38810715 -0.33770287 0.06210684 -0.64275354
-0.44415075 -0.44421348 -0.18734692 -0.71636593 -0.010677746 -0.0094552925 -0.13237448 -0.3145616
-0.079144664 -0.47198537 0.22455467 -0.46747813 0.4579392 -0.34974474 0.5053709 -0.4546423
0.6315681 -0.35444364 0.34285548 -0.4151875 0.20737147 -0.15624781 0.24044089 -1.1284987
00000000: d6f7 143e e064 893c 3dc6 b63e 1bcf 693f
00000010: 04f6 783e ec30 cfbd 7ce6 5abe 779d 613f
00000020: 1726 cbbe f864 bbbe 6eab cbbe 55f5 0ebe
00000030: 76c3 8bbd 7881 143f 7028 e8be 3629 0c3f
00000040: 996f 0f3e 2fe2 853e 0e24 81be 18a4 06bf
00000050: d1c7 853e 4e0f a53e ad76 0d3f c3c4 a3bd
00000060: d56d 24be cf44 28bf 933b dd3e 134f 6cbe
00000070: 66c0 073f 7bb8 703d c89c 33be cb5c 85be
00000080: 0ae3 ebbe 3b2b 36bf 9109 64be a2d3 483d
00000090: deaa b43d 4b1c 0d3f 824e 60be 4cf4 3e3e
000000a0: 25a0 35be 2b19 69bf a134 9bbe 73ec 8ebe
000000b0: b2a1 5a3f 92f3 db3e 7d91 1b3f d3aa 86bd
000000c0: cb53 9f3e 5172 1bbf 9bad 323f 93c6 a83c
000000d0: 65e8 bfbf 77ed a73e 34a6 883f b764 a1be
000000e0: 8c46 433f 8fd5 0a3e 0eea e53e 20df e43c
000000f0: ae7e 49bf 16e7 323d d312 debc 1614 193d
00000100: eae7 ea3d bb78 053e 2521 883e a997 ea3e
00000110: 7566 ebbd db60 e73d 2f77 f9bc 4ea0 b1be
00000120: 8855 e9bd a226 5cbe 87e8 263f bb5d ffbe
00000130: 5bc6 d93e 5ef5 79be fc7e 85be 6f15 a93d
00000140: b2da 1cbf 20c9 c63e c084 44bf 0220 f43e
00000150: 3161 91be c80c b33d 5d94 8f3e 8f57 bb3d
00000160: 32c6 013f 55cd 833c aea9 883f 0f8d ffbe
00000170: eab1 c33f 21f9 963f 031d 35bf ff40 803e
00000180: a0ef 63bf 5aed 24ba 10ec e8be b0be e9be
00000190: 1d2e 1d3f 5da9 5abf 17f5 09bf 7c2f 413f
000001a0: 281f afbe bde1 8ebe 5969 fdbe e5ff 543b
000001b0: 6b58 283e 434b 003e 7f82 143d 44e1 e93e
000001c0: cb77 6d3e 1294 7c3d 7b8d 07bf 68ab 3cbf
000001d0: 5e68 eebe 047a 20bf 199a df3f 9371 8f3e
000001e0: e226 b83f 18a3 3cbe 617c 3f3f 021b 6bbd
000001f0: d5a1 c13e a42a 1c3e 00af cdbd cb0f 02be
00000200: ed6b 8fbd c204 213e d1b1 fb3d a2ee 80be
00000210: e0ff 30bf c1d1 6c3e 7e30 7fbf 8f5c 153f
00000220: 2f6c a43e 42f5 81bf 1192 5d3f 205f d9be
00000230: 21dc e63e bf70 dabe 143c 333f b2a8 e8be
00000240: 6544 773e 6f1d cfbe f218 863d bb7c 0ebf
00000250: 91b1 513e 028d 933e fde1 613e fa17 0d3e
00000260: 34a2 173f 039a bfbe cd07 db3e a72f 823e
00000270: 77a8 ec3d 402b 173e 0c16 3abf 3404 8c3e
00000280: 3278 dabe de8d 8e3e 6cff f5bd 769e 113f
00000290: 4cfa 5dbc 089f 833e 16a7 a2be 1d25 7f3e
000002a0: 017b 3ebe 8990 31be 1485 e7bc 7474 0dbe
000002b0: 5303 52be 0e1a 323d ae6e 053f b373 80be
000002c0: 33a5 6bbe b2d2 70bf 69c9 5fbd 43d4 d2be
000002d0: 58f6 02bc ff4f 433e b093 c73d 7aee 403f
000002e0: f2fa 593e 804c c93f 35f6 9ebe 4853 6ebe
000002f0: 6549 94be 8572 cf3e 50f1 66be 934d 15bf
00000300: 8856 9e3e b91f 5fbf 3d18 143d c1d7 e33c
00000310: fdfd ef3d c4bd 153f 3073 96be 5ff9 28be
00000320: 937a 433e 3e66 e4be 1e60 693d c0ec 3f3f
00000330: e254 073d 02b6 f93e 20a6 66be 97e6 0fbf
00000340: a7a6 263e 1c52 05bf 2c70 4d3e 6018 823c
00000350: cb63 4a3f 5c18 d0be 3c9a 133f da4b 413e
00000360: 5fac b0be cf47 ffbe 6f36 16bf 8985 5b3e
00000370: f103 9fbc 7aed b0bd f347 e13e 88f1 84be
00000380: 88e3 12bf d575 853e aa17 d9bf ecea 45be
00000390: fbb5 c6be 64e7 acbe be63 7e3d 7f8b 24bf
000003a0: ba67 e3be f36f e3be dfd7 3fbe c263 37bf
000003b0: b6f1 2ebc 5fea 1abc 2d8d 07be 380e a1be
000003c0: 9916 a2bd 11a8 f1be a9f1 653e 4b59 efbe
000003d0: 0277 ea3e be11 b3be fd5f 013f e0c6 e8be
000003e0: 72ae 213f a379 b5be c18a af3e 7593 d4be
000003f0: 3059 543e 6dff 1fbe 2336 763e a572 90bf

sequential/dense_1/MatMul f4 [10, 20]
-1.4934249 -1.1539215 0.49481905 0.07190615 3.88197 -0.27649498 0.99238884 0.7953659
-1.1056218 2.6538851 -0.27502403 1.392503 -0.33382738 -0.49848738 0.42393023 0.05487144
1.0553354 1.4163052 0.58754534 -0.6484496 -0.10319018 0.8857048 0.759055 -0.35095456
-3.1834552 0.8218117 -1.2746826 0.97203743 1.0379305 0.50058305 -0.041153405 0.026779095
-0.532468 -1.4421009 -0.48697847 1.0501676 0.42379895 0.35407943 -0.9158126 0.7848699
1.2759309 -0.06558648 0.03385255 -0.064882584 1.9580544 -0.19383968 0.12741251 0.31879747
0.36454222 0.4231934 0.05664524 0.8854214 1.1455764 0.29548138 -0.14349581 0.41484934
-1.4118552 0.9151079 1.3673358 0.26013517 -1.6601102 -1.664117 -0.767208 -0.40244552
1.4848913 0.756345 -0.9026971 0.030421574 -0.1368639 -1.2543018 -0.6590919 1.0776805
0.69231045 -0.62520975 0.032290187 0.020297503 1.0801032 0.17083536 0.856178 0.5882049
0.7716267 -0.95998955 0.36716813 -0.047572616 -1.1986015 -0.7118556 0.9609042 0.5050734
0.07707075 -0.43135738 0.8682136 0.12746143 1.2237607 -0.2897475 1.0353497 -0.06715951
0.38490295 -2.4651842 -0.03762229 0.65422916 -0.26148495 0.8485702 0.14958236 0.8188266
1.5888612 0.33220848 -1.0470349 1.7760969 0.17176436 -1.3460475 0.8149177 -0.35047913
-0.68403035 -0.53882784 0.8216611 0.11444214 -0.17696692 -0.36771518 -0.8579076 0.53486866
-1.31533 -0.2343218 -0.5788125 1.7082565 -0.83272815 0.77672434 1.3180314 -0.1678262
-0.052552506 -1.1680485 0.08148492 -0.84233445 0.51932013 -0.1273581 0.036272652 -0.33156294
0.17963743 -0.7700931 0.5057768 -0.57411957 -1.3796731 0.8840229 0.2653733 0.22831406
-2.384665 0.2768683 1.6808721 -0.67803955 -1.1122297 -2.8416593 0.4255163 2.3795183
-1.170453 -0.61217594 0.27894968 0.57069314 -1.2847416 1.3262284 -0.71255124 0.093070894
0.78934354 -0.7398804 2.1659353 0.8414713 0.1598164 0.38520053 1.2417314 0.21497251
0.69629335 2.0764534 -0.74418044 0.10038126 -0.7821194 1.6332465 -0.4901353 -0.15750685
0.8704706 -0.4138777 0.6595554 -1.1178881 1.02507 -0.13529147 -1.2538401 0.63122135
-1.0282505 0.119111285 0.5396447 0.31210017 -0.21912162 0.16672505 -1.631249 -0.6213642
0.5418375 0.83691096 -0.014551688 0.7594053 0.26708782 -0.4518701 1.0310612 -0.5599627
00000000: 8c28 bfbf b3b3 93bf ec58 fd3e 8843 933d
00000010: 3272 7840 c090 8dbe 320d 7e3f 1a9d 4b3f
00000020: 0485 8dbf 41d9 2940 f3cf 8cbe 8a3d b23f
00000030: 6ceb aabe bd39 ffbe 620d d93e e0c0 603d
00000040: 3b15 873f 7d49 b53f 5f69 163f cb00 26bf
00000050: 6055 d3bd 8dbd 623f 6e51 423f 51b0 b3be
00000060: bbbd 4bc0 4062 523f cd28 a3bf 72d7 783f
00000070: e8da 843f 3626 003f 7990 28bd d55f db3c
00000080: d34f 08bf c396 b8bf 3e55 f9be e46b 863f
00000090: 2dfc d83e e649 b53e b272 6abf 3ced 483f
000000a0: b451 a33f 3452 86bd f9a8 0a3d 29e1 84bd
000000b0: 87a1 fa3f e97d 46be 6d78 023e 6c39 a33e
000000c0: 47a5 ba3e ceac d83e d704 683d faaa 623f
000000d0: 3fa2 923f 5649 973e 91f0 12be 2267 d43e
000000e0: acb7 b4bf 8344 6a3f dc04 af3f 7030 853e
000000f0: 7e7e d4bf c901 d5bf be67 44bf 570d cebe
00000100: eb10 be3f d39f 413f 2817 67bf aa36 f93c
00000110: 0d26 0cbe f68c a0bf 3fba 28bf 6ff1 893f
00000120: 423b 313f bf0d 20bf b742 043d f346 a63c
00000130: d240 8a3f 77ef 2e3e 7b2e 5b3f 9994 163f
00000140: 5489 453f e0c1 75bf 76fd bb3e 81db 42bd
00000150: c66b 99bf 2b3c 36bf d1fd 753f 7e4c 013f
00000160: 45d7 9d3d e0da dcbe 3f43 5e3f 4085 023e
00000170: 31a4 9c3f c959 94be 5786 843f ed8a 89bd
00000180: 0012 c53e 94c5 1dc0 d519 1abd 907b 273f
00000190: 5be1 85be e63b 593f 1e2c 193e 9f9e 513f
000001a0: ce5f cb3f 3b17 aa3e 3d05 86bf 2557 e33f
000001b0: ffe2 2f3e 494b acbf 729e 503f 0072 b3be
000001c0: 9d1c 2fbf 9ff0 09bf 6258 523f a460 ea3d
000001d0: d136 35be 2a45 bcbe d59f 5bbf 27ed 083f
000001e0: bc5c a8bf 0ef2 6fbe 0e2d 14bf 26a8 da3f
000001f0: ac2d 55bf 68d7 463f 41b5 a83f a2da 2bbe
00000200: 4c41 57bd 9d82 95bf 91e1 a63d 3ba3 57bf
00000210: 2af2 043f 296a 02be a292 143d 9ec2 a9be
00000220: e0f2 373e d224 45bf 977a 013f 80f9 12bf
00000230: 2199 b0bf 534f 623f 02df 873e 29cb 693e
00000240: 5a9e 18c0 afc1 8d3e d126 d73f 0094 2dbf
00000250: 8b5d 8ebf bfdd 35c0 46dd d93e 074a 1840
00000260: 67d1 95bf 90b7 1cbf 7ed2 8e3e f218 123f
00000270: 6a72 a4bf dac1 a93f c269 36bf f49b be3d
00000280: 6b12 4a3f cd68 3dbf af9e 0a40 aa6a 573f
00000290: e9a6 233e 0139 c53e 0ef1 9e3f c121 5c3e
000002a0: 4840 323f 9de4 0440 9c82 3ebf b194 cd3d
000002b0: fa38 48bf 390e d13f 04f3 fabe 7a49 21be
000002c0: 29d7 5e3f c7e7 d3be 9fd8 283f f516 8fbf
000002d0: 7e35 833f d989 0abe d57d a0bf b997 213f
000002e0: b69d 83bf 9ef0 f33d 2826 0a3f 98cb 9f3e
000002f0: 6b61 60be f9b9 2a3e c4cc d0bf b911 1fbf
00000300: ddb5 0a3f cc3f 563f 346a 6ebc 6368 423f
00000310: bcbf 883e 855b e7be d0f9 833f b759 0fbf

sequential/dense_2/MatMul f4 [8, 10]
-4.0016265 0.96879315 -1.5483329 0.30592415 0.3658311 0.7976434 0.99505657 -7.80871
0.21067578 -0.7151921 -0.0435131 0.9641863 -0.22850184 -0.13229166 -0.71239674 0.7312194
-0.44442594 2.1568055 -3.4152942 -3.076217 -1.317227 0.94533 0.25579613 -0.18994282
-1.5743126 -0.683474 0.2690922 -0.35108736 1.7284081 1.1923523 0.05615438 -0.96853304
1.2247592 -1.1733198 -0.020180736 1.0099038 -1.1759903 0.3663138 -0.16274178 1.125067
0.8165341 -1.2415259 -0.7943813 0.43406108 0.27459836 0.24463017 1.2274733 1.6401078
0.6845593 0.040684685 1.1433485 -1.894272 1.4508605 0.95130414 0.22846273 -2.061565
0.12103787 0.95956993 -1.1200362 -0.7604122 -0.07108172 -2.824528 -0.049836382 -5.886843
2.6028 -0.03855944 -2.5284958 1.3303925 0.925344 -1.7857842 1.7058595 -0.20279312
-0.14109528 1.0616149 -2.2387066 -0.031678073 -0.31301242 1.0892336 -0.15411575 0.5459036
00000000: 530d 80c0 d402 783f c62f c6bf 17a2 9c3e
00000010: 374e bb3e 5c32 4c3f 07bc 7e3f f4e0 f9c0
00000020: 64bb 573e d416 37bf cb3a 32bd ead4 763f
00000030: 63fc 69be 7777 07be a25f 36bf 3231 3b3f
00000040: cc8b e3be 1a09 0a40 2e94 5ac0 bde0 44c0
00000050: e59a a8bf 2601 723f b6f7 823e 5f80 42be
00000060: 1383 c9bf 27f8 2ebf 74c6 893e b9c1 b3be
00000070: 7a3c dd3f 009f 983f 2302 663d c8f1 77bf
00000080: e9c4 9c3f 582f 96bf 1252 a5bc 8744 813f
00000090: da86 96bf 7b8d bb3e c8a5 26be 3202 903f
000000a0: 6108 513f 52ea 9ebf 935c 4bbf 413d de3e
000000b0: 2898 8c3e 5580 7a3e d81d 9d3f 0def d13f
000000c0: 473f 2f3f fca4 263d 3e59 923f 8177 f2bf
000000d0: ccb5 b93f ab88 733f 22f2 693e aef0 03c0
000000e0: b4e2 f73d 60a6 753f 595d 8fbf 60aa 42bf
000000f0: 4b93 91bd 11c5 34c0 3c21 4cbd 0561 bcc0
00000100: 4694 2640 81f0 1dbd e0d2 21c0 4d4a aa3f
00000110: 58e3 6c3f 9494 e4bf 9b59 da3f 00a9 4fbe
00000120: 487b 10be ffe2 873f f846 0fc0 dec0 01bd
00000130: 2a43 a0be 026c 8b3f 85d0 1dbe 57c0 0b3f
