gesture_model/model/keypoint_classifier/keypoint_classifier.tflite (tflite, 6592 bytes, 6 tensors)

dense_2/bias f4 [8]
-0.798039 2.4915555 0.88371575 -1.3576909 0.19818746 0.68824226 -1.4676151 -1.4297884
00000000: 494c 4cbf a575 1f40 323b 623f d1c8 adbf
00000010: a7f1 4a3e a530 303f d0da bbbf 4e03 b7bf

dense_1/bias f4 [10]
0.7873469 0.086141326 0.06592153 -0.53571695 0.42948115 0.010177597 -0.96527606 0.045866143
-0.1254346 -0.45086917
00000000: 918f 493f dd6a b03d de01 873d bf24 09bf
00000010: f4e4 db3e f0bf 263c 551c 77bf 23de 3b3d
00000020: ee71 00be 53d8 e6be

dense/bias f4 [20]
0.28386006 -0.4668731 0.06076541 0.122008845 -0.0068979166 0.13025226 -0.2294879 0.36869192
0.680852 0.35322213 0.039218344 0.28940907 -0.21814547 0.41727677 0.595304 -0.036960036
0.02280109 -0.70705515 -0.17272411 -0.39864057
00000000: 1b56 913e fe09 efbe 27e5 783d c6df f93d
00000010: eb07 e2bb d960 053e e0fe 6abe 30c5 bc3e
00000020: 514c 2e3f 88d9 b43e 6aa3 203d 6d2d 943e
00000030: 8761 5fbe 4da5 d53e d865 183f 6863 17bd
00000040: 5ac9 ba3c 9101 35bf 97de 30be 9e1a ccbe

sequential/dense/MatMul f4 [20, 42]
0.10037723 -0.028338015 -1.7183913 1.511508 -0.7708925 0.3118917 0.4924983 0.55262923
1.6173542 -0.25164706 -1.2043796 -0.76739264 0.28774372 0.018623253 -0.0063932505 0.7609644
0.14553711 0.4110455 -0.1907278 -0.75983214 0.3057334 -0.18508938 -0.017638274 0.06505128
-0.104351185 -0.45026472 0.9214005 -1.1615763 1.118448 0.21513283 0.008819903 0.40877858
-0.7882896 -0.104193896 0.2901929 -0.4329133 0.22370706 0.3956726 0.16953853 0.087395296
-0.12614599 -0.056912556 0.12511414 -0.2873139 0.5418223 0.5356038 -0.15050174 0.114382066
-0.6947842 -1.3709191 -0.5132625 -0.5195361 0.040203065 -1.463192 -0.32950422 0.2504461
0.35212067 1.5157349 0.8532166 0.9956971 0.19329695 -0.57901794 -0.6103892 0.10196588
-0.011691552 -0.100720316 -0.084818855 -0.4827366 -0.14823127 -0.05095561 -0.0061571454 -0.25511086
-0.2182944 -0.56130666 0.05831183 -0.42160138 0.22196475 0.81496656 0.58392775 0.019867005
-0.27579197 -0.42042226 -0.29186776 0.5061431 0.0091452 0.021839082 -0.05705357 0.38425237
0.22389369 0.6711214 -0.34100753 -0.37804183 -0.3252025 0.8802379 0.7638404 0.6955389
0.24371432 -0.2125251 -0.13203655 -0.836546 -0.65986776 -0.7999562 0.036412876 0.29805437
0.055190124 -0.7079153 -0.003650433 -0.087818116 0.3642602 0.3167603 -0.168872 0.34898788
-0.45569927 -0.6376601 0.17634454 0.28447485 -0.37771046 0.96844333 -0.4934192 -0.9564996
0.1527439 -0.9800535 0.2856931 -0.21582784 0.42859268 0.39656922 -0.11306153 -0.17402875
1.9626665 1.8077112 -0.1730725 0.15941155 -0.6552277 0.03530066 -0.33127272 -0.79381204
-0.35233504 0.099494874 -0.10482255 -0.17396805 0.034844708 -0.41464826 -0.31667054 0.5510384
-0.47369498 0.034758758 0.5458334 -0.259341 0.5712942 0.16739298 1.1270372 0.2327525
-0.3212572 0.2614436 0.17992587 0.08478195 0.921407 -0.769138 1.7639309 -0.6076385
0.45516616 0.11871648 -0.011072036 0.08043779 -0.4082143 0.16645958 -0.16229711 0.02149042
0.033216327 -0.15004754 -0.43225712 -0.6003463 1.2207085 -0.07284305 0.60248584 -0.06045218
-0.9269307 -0.88725525 0.50379926 0.14181902 1.3033682 0.008074821 -0.19188248 0.7849454
-1.473823 0.3085339 0.09667628 0.016453706 0.46998465 -0.17531891 -0.39941776 0.41871494
-0.1652865 0.563917 -0.14907192 -0.07337302 0.9280542 -0.31914082 0.41791075 0.20195957
0.7396706 -0.3332409 -0.084466994 -0.4305272 -0.14759882 -1.0819474 -0.6839873 0.20353158
-0.45815971 -0.25390035 -0.25319457 0.06665298 0.21681882 -0.95830566 -0.9803372 -0.12014016
-1.2943071 1.1034842 -0.34801564 0.5855095 2.0615869 -0.27544537 -0.14112583 0.47580767
-0.52504057 0.17204843 -0.3250287 -0.34798062 1.3081836 -0.36702102 0.36732703 0.07884317
0.51020116 -0.30231202 0.3072585 -0.7840566 0.04319841 -0.22243153 0.52976155 0.4071162
0.042937495 -0.08248358 -0.10761297 -0.48164558 -1.2996851 0.015712308 -0.64764464 0.76121956
-0.11691955 0.75790644 0.4887491 0.048979457 0.24268335 0.20487916 0.6224734 0.4000675
00000000: 9492 cd3d 2025 e8bc 3ff4 dbbf 1879 c13f
00000010: 3659 45bf 45b0 9f3e bd28 fc3e 1c79 0d3f
00000020: 7605 cf3f e2d7 80be 1c29 9abf d873 44bf
00000030: 2553 933e cb8f 983c 797e d1bb 90ce 423f
00000040: ae07 153e 8e74 d23e 264e 43be 5c84 42bf
00000050: 1789 9c3e 1288 3dbe 247e 90bc 9b39 853d
00000060: 13b6 d5bd 1989 e6be e7e0 6b3f 88ae 94bf
00000070: 4e29 8f3f c84b 5c3e 5b81 103c 6d4b d13e
00000080: 59cd 49bf 9c63 d5bd 2a94 943e d0a6 ddbe
00000090: 7713 653e 9995 ca3e 829b 2d3e 4efc b23d
000000a0: 6a2c 01be 241d 69bd ec1d 003e cf1a 93be
000000b0: deb4 0a3f 551d 093f 211d 1abe 2541 ea3d
000000c0: 61dd 31bf 477a afbf 2c65 03bf 5100 05bf
000000d0: f8ab 243d e049 bbbf c7b4 a8be 793a 803e
000000e0: 2949 b43e 9a03 c23f 676c 5a3f 01e6 7e3f
000000f0: a3ef 453e 853a 14bf 7742 1cbf 7dd3 d03d
00000100: ec8d 3fbc 7446 cebd 82b5 adbd 4029 f7be
00000110: f0c9 17be d4b6 50bd e1c1 c9bb e49d 82be
00000120: 9188 5fbe cbb1 0fbf 63d8 6e3d 23dc d7be
00000130: ba4a 633e a6a1 503f 4a7c 153f 21c0 a23c
00000140: 9b34 8dbe 9641 d7be b16f 95be 9892 013f
00000150: c0d5 153c e0e7 b23c 01b1 69bd babc c43e
00000160: 6344 653e 9dce 2b3f 8a98 aebe b38e c1be
00000170: f180 a6be 4557 613f 0b8b 433f d60e 323f
00000180: 3f90 793e 2ea0 59be 9734 07be e127 56bf
00000190: 18ed 28bf eec9 4cbf ab25 153d 959a 983e
000001a0: 0a0f 623d f039 35bf 1a3c 6fbb fcd9 b3bd
000001b0: 5080 ba3e 682e a23e c8ec 2cbe 8aae b23e
000001c0: 6a51 e9be b13d 23bf aa93 343e b0a6 913e
000001d0: 4463 c1be e7eb 773f 71a1 fcbe 28dd 74bf
000001e0: e668 1c3e c9e4 7abf 5e46 923e f901 5dbe
000001f0: 8070 db3e 1f0b cb3e ce8c e7bd 9834 32be
00000200: a838 fb3f 1563 e73f eb39 31be c83c 233e
00000210: 01bd 27bf 6d97 103d 949c a9be 4437 4bbf
00000220: 4265 b4be f8c3 cb3d 35ad d6bd ae24 32be
00000230: 53b9 0e3d c74c d4be a422 a2be da10 0d3f
00000240: 2688 f2be 335f 0e3d bdbb 0b3f 58c8 84be
00000250: 5640 123f 1169 2b3e c142 903f ac56 6e3e
00000260: d37b a4be efdb 853e 7d3e 383e 29a2 ad3d
00000270: 54e1 6b3f 3ae6 44bf 7dc8 e13f 328e 1bbf
00000280: 8a0b e93e a021 f33d 7c67 35bc 91bc a43d
00000290: 7701 d1be 6174 2a3e 3731 26be ad0c b03c
000002a0: d80d 083d 10a6 19be ce50 ddbe 4cb0 19bf
000002b0: 2d40 9c3f bd2e 95bd 833c 1a3f b59c 77bd
000002c0: 554b 6dbf 2923 63bf fdf8 003f 0139 113e
000002d0: c5d4 a63f 414c 043c d77c 44be 2ff2 483f
000002e0: 3ba6 bcbf 28f8 9d3e 37fe c53d ecc9 863c
000002f0: d4a1 f03e cd86 33be 7c80 ccbe ce61 d63e
00000300: dd40 29be dd5c 103f 4fa6 18be 9844 96bd
00000310: f694 6d3f 6d66 a3be 66f8 d53e 7dce 4e3e
00000320: 0d5b 3d3f 8d9e aabe 08fd acbd 106e dcbe
00000330: 2524 17be 417d 8abf cb19 2fbf 956a 503e
00000340: e993 eabe 3aff 81be b8a2 81be 5c81 883d
00000350: c105 5e3e 8553 75bf 61f7 7abf 0b0c f6bd
00000360: dbab a5bf f83e 8d3f 1b2f b2be f3e3 153f
00000370: 0af1 0340 2d07 8dbe 4a83 10be 109d f33e
00000380: 0f69 06bf 772d 303e 296a a6be 842a b2be
00000390: 8f72 a73f 2eea bbbe 4a12 bc3e 8778 a13d
000003a0: 8b9c 023f a4c8 9abe fc50 9d3e efb7 48bf
000003b0: d1f0 303d 17c5 63be 749e 073f 8971 d03e
000003c0: 3adf 2f3d 27ed a8bd 3064 dcbd 409a f6be
000003d0: 155c a6bf 19b7 803c 0acc 25bf 49df 423f
000003e0: 8473 efbd 2806 423f 523d fa3e af9e 483d
000003f0: fc81 783e d8cb 513e 6b5a 1f3f a6d5 cc3e

sequential/dense_1/MatMul f4 [10, 20]
-0.19289857 -0.6105983 0.78980094 0.5142108 0.48579836 -0.44294974 1.3200669 -0.31821015
-2.6893458 1.4099237 1.6265242 -0.18854699 1.401202 -0.45478547 0.8404699 0.4239235
1.0803343 -0.2769443 -0.64582926 -0.6145734 -0.3157265 0.47082895 -0.4322499 0.56127375
-0.45044762 -0.67165506 0.370737 1.4995133 -0.573324 0.32105473 0.75692534 -0.18575695
0.086262316 0.4775366 0.1427441 -0.39324135 0.65326005 -0.97016126 -0.29648122 -1.4895728
-0.70638716 -0.8779295 -1.1224612 1.0203458 1.1884094 0.27679333 1.4281539 0.95798546
-1.0112106 -0.013934922 0.7818013 0.50608385 1.0967516 -0.47028255 0.03066829 0.035215177
-0.022798643 0.75699705 -1.4742628 -0.41283557 0.7156225 3.5161314 -0.20539367 0.27285463
0.067667134 -1.4671687 -1.5119513 -0.19901124 0.89721453 -0.3638476 -1.5266314 0.72942555
0.08398991 0.3131543 0.9783295 1.077514 -0.9284653 0.12265259 1.1197028 -0.60572696
0.088249326 -1.5775487 1.5211312 -0.7228749 -1.1630993 0.021208178 0.028496278 -0.71919024
-1.4892281 1.222071 -0.03058179 -0.1518629 0.91038305 -0.31663412 1.232957 -0.42389694
0.37820432 -1.1855333 0.38696817 0.7634569 0.55623436 0.64296705 -0.6152344 0.1717413
1.9635974 0.74812025 0.7688676 0.35895056 -1.0245628 -0.3302057 -1.194095 1.5370101
0.53396237 -0.3510238 -1.3022734 1.3717805 -0.06454198 -0.80255955 -1.0351168 0.9376541
1.1253139 -0.179806 -1.4442605 -0.443128 2.1263354 -0.11452599 -0.18679488 0.7827418
1.0845332 -0.61137307 -0.55693567 -0.6287285 0.12467469 0.13096131 0.88465244 1.9533119
1.0361183 -0.29271916 -0.77305335 1.0005195 1.8805796 1.0252366 -0.4304538 -1.379423
1.3277978 1.1122729 -0.65945435 -0.3311203 -1.6754459 0.12168999 -1.0934708 0.43021715
0.09461829 0.682214 0.5030716 0.88232183 1.1039717 0.25088653 0.9568616 0.7745504
2.3392563 -0.31649014 -0.43575874 0.02392682 0.44368538 1.7168354 0.0230142 0.5281831
-2.2710676 -1.5439398 -0.20880346 -0.26233876 1.0116979 1.6186757 -0.5557473 1.0481254
0.513282 0.2213531 -1.7172318 0.4954042 -0.9468683 -2.2248435 0.60523325 0.43511647
-0.8756114 0.7877746 -0.75408465 1.3238676 0.941872 1.4528496 -1.4187417 0.48910308
1.334224 0.070883885 0.6986307 -0.28584516 -0.61224 0.42109728 0.8542785 -0.774204
00000000: 3487 45be 2c50 1cbf 6530 4a3f 52a3 033f
00000010: 90ba f83e 4fca e2be f4f7 a83f 71ec a2be
00000020: 3e1e 2cc0 6178 b43f f231 d03f 7612 41be
00000030: 965a b33f a4d9 e8be 0929 573f 800c d93e
00000040: 6548 8a3f a5cb 8dbe 1155 25bf af54 1dbf
00000050: e7a6 a1be 7e10 f13e dc4f ddbe a3af 0f3f
00000060: 12a1 e6be 96f1 2bbf 3dd1 bd3e 0df0 bf3f
00000070: 5dc5 12bf 4961 a43e dcc5 413f 1237 3ebe
00000080: 4caa b03d ad7f f43e 822b 123e ee56 c9be
00000090: 0d3c 273f 7d5c 78bf 63cc 97be 52aa bebf
000000a0: cad5 34bf fdbf 60bf cfac 8fbf b19a 823f
000000b0: cd1d 983f dbb7 8d3e bfcd b63f 893e 753f
000000c0: 596f 81bf 4d4f 64bc 2124 483f b68e 013f
000000d0: 5b62 8c3f e0c8 f0be 113c fb3c ca3d 103d
000000e0: 38c4 babc 8fca 413f a5b4 bcbf 2f5f d3be
000000f0: 0933 373f 4c08 6140 b852 52be 9ab3 8b3e
00000100: 1195 8a3d 2fcc bbbf 9f87 c1bf 9ac9 4bbe
00000110: daaf 653f 3c4a babe a868 c3bf a2bb 3a3f
00000120: e702 ac3d c355 a03e cd73 7a3f fbeb 893f
00000130: e7af 6dbf 4831 fb3d 6c52 8f3f ec10 1bbf
00000140: 10bc b43d 1eed c9bf 6db4 c23f 540e 39bf
00000150: 70e0 94bf c6bc ad3c 0771 e93c da1c 38bf
00000160: 079f bebf d36c 9c3f a986 fabc f381 1bbe
00000170: dd0e 693f de1d a2be 89d1 9d3f 0509 d9be
00000180: ffa3 c13e 8ebf 97bf b120 c63e e971 433f
00000190: 6065 0e3f 7d99 243f 0080 1dbf f4dc 2f3e
000001a0: 2957 fb3f cf84 3f3f 82d4 443f 5ec8 b73e
000001b0: e024 83bf b910 a9be 1bd8 98bf bfbc c43f
000001c0: c2b1 083f 64b9 b3be e5b0 a6bf 8196 af3f
000001d0: 962e 84bd 8b74 4dbf b57e 84bf 190a 703f
000001e0: 490a 903f 101f 38be 87dd b8bf ace1 e2be
000001f0: e115 0840 9a8c eabd 2847 3fbe c461 483f
00000200: fcd1 8a3f f282 1cbf 5693 0ebf 5af4 20bf
00000210: 7255 ff3d b91a 063e 9578 623f 2006 fa3f
00000220: 869f 843f 49df 95be d3e6 45bf 0611 803f
00000230: d5b6 f03f f43a 833f 7164 dcbe ef90 b0bf
00000240: 47f5 a93f f55e 8e3f 00d2 28bf 9a88 a9be
00000250: 0375 d6bf 9a38 f93d daf6 8bbf 6c45 dc3e
00000260: 3cc7 c13d 94a5 2e3f 4dc9 003f d8df 613f
00000270: f24e 8d3f 3374 803e e2f4 743f ef48 463f
00000280: 60b6 1540 ff0a a2be c51b dfbe 2e02 c43c
00000290: bb2a e33e 43c1 db3f 4788 bc3c 0237 073f
000002a0: 2c59 11c0 d29f c5bf 93d0 55be 4451 86be
000002b0: 517f 813f c430 cf3f 7445 0ebf f928 863f
000002c0: 7366 033f 63aa 623e 40ce dbbf 9fa5 fd3e
000002d0: f665 72bf d663 0ec0 91f0 1a3f 96c7 de3e
000002e0: 1228 60bf 99ab 493f b10b 41bf 7e74 a93f
000002f0: 861e 713f faf6 b93f 5499 b5bf b86b fa3e
00000300: dac7 aa3f 922b 913d 76d9 323f 4c5a 92be
00000310: c3bb 1cbf 109a d73e ffb1 5a3f 3c32 46bf

sequential/dense_2/MatMul f4 [8, 10]
0.49720493 0.45987025 0.36827114 -2.6921885 -4.3483324 -0.7864477 -1.3146877 0.3547644
0.6779937 0.44763666 1.2152628 0.63565207 0.67168415 -0.6856625 -2.1757565 -2.302861
-2.6472945 -3.1951408 -7.7989364 0.60985625 0.22565076 -2.0360787 -1.4941473 0.5502451
-1.8596859 0.1836973 0.32179606 0.5486536 0.5002676 0.20478839 -0.83296335 0.3548519
1.3726919 -0.67025876 1.9418575 0.26559895 0.96510804 -0.7682924 0.8684369 -0.6415374
-1.0850666 0.8512423 -1.9893671 1.5469805 0.34527627 1.5460387 -0.9236175 1.2036372
-0.53267914 -0.06926458 0.47943756 -0.29559538 1.1719602 0.1493628 -0.55200195 -1.0555263
1.1138756 0.18860102 -0.40814492 -2.9664478 2.604973 -3.851606 -0.37636256 1.3245174
-0.67386353 2.0465496 -1.8897406 -1.0169406 1.2925626 -2.766827 -2.2346246 0.42802924
-0.7697509 1.8321292 1.6437263 -0.78604484 0.7212287 -1.3681962 1.1216533 0.8212072
00000000: a591 fe3e 1d74 eb3e 098e bc3e d14c 2cc0
00000010: 8a25 8bc0 a354 49bf b047 a8bf aea3 b53e
00000020: ff90 2d3f a230 e53e bb8d 9b3f 18ba 223f
00000030: 7ef3 2b3f 9487 2fbf 983f 0bc0 1362 13c0
00000040: 466d 29c0 307d 4cc0 e390 f9c0 8a1f 1c3f
00000050: fe10 673e 1d4f 02c0 3840 bfbf dddc 0c3f
00000060: 300a eebf 251b 3c3e 74c2 a43e 9074 0c3f
00000070: 8a11 003f 0cb4 513e 163d 55bf 26af b53e
00000080: 5eb4 af3f 1496 2bbf c98e f83f 96fc 873e
00000090: 5211 773f d0ae 44bf e151 5e3f cc3b 24bf
000000a0: 76e3 8abf 04eb 593f 95a3 febf 7503 c63f
000000b0: 0dc8 b03e 99e4 c53f 3272 6cbf c910 9a3f
000000c0: a95d 08bf 97da 8dbd d778 f53e 4758 97be
000000d0: cb02 963f 90f2 183e 0050 0dbf 7c1b 87bf
000000e0: 7a93 8e3f a020 413e 5ff8 d0be 48da 3dc0
000000f0: e1b7 2640 b680 76c0 98b2 c0be c989 a93f
00000100: 5282 2cbf abfa 0240 05e3 f1bf 1c2b 82bf
00000110: b172 a53f b213 31c0 1704 0fc0 a626 db3e
00000120: 650e 45bf 3683 ea3f a065 d23f 3c3a 49bf
00000130: 72a2 383f 0e21 afbf 5692 8f3f a33a 523f
