gesture_model/model/keypoint_classifier/keypoint_classifier.tflite (tflite, 6816 bytes, 6 tensors)

dense_2/bias f4 [8]
00000000: 32ea ebbe d08c 913d 8bfa b3bd 9cc7 d53e
00000010: 0ec0 07bf 1315 a2bf e155 ff3f d2ba 3c3f
-0.46077114 0.07106936 -0.08788022 0.41753852 -0.5302743 -1.2662681 1.9948083 0.73722565

dense_1/bias f4 [10]
00000000: 9ec5 fb3e 2239 ab3e 208b 0e3d dad4 67bd
00000010: 6209 ff3d 4524 db3e 32e9 ba3e a5b4 213f
00000020: 9afb d0be 1c61 aa3f
0.49174207 0.33442026 0.03480065 -0.056599475 0.124529615 0.4280111 0.3650604 0.63166267
-0.40816957 1.3310885

dense/bias f4 [21]
00000000: ac50 b73e fb58 ed3e d446 c13e c597 06bd
00000010: 0364 063e 5616 2abd d1b3 843e fe90 883e
00000020: c4a3 873e 9a02 59bd e664 58bd 0251 0f3d
00000030: ef7e 32be b282 d53e 7409 c3be 708c b2be
00000040: 88d0 88be a856 04bd c7eb 2abe d134 a03e
00000050: 4b20 0abe
0.35803735 0.4635695 0.3774935 -0.032859582 0.13124089 -0.041525207 0.2591844 0.2667312
0.2649213 -0.052980997 -0.0528306 0.034989364 -0.17431234 0.41701275 -0.3809315 -0.3487277
-0.26721597 -0.032309204 -0.16691504 0.31290296 -0.13488881

sequential/dense/MatMul f4 [21, 42]
00000000: 582b 28bd 8812 1d3d 9b93 c6be be6f cbbd
00000010: d48f debe 095f 23be 45df 3c3d 772d 643e
00000020: 917f a93f 661f e9bf e9a4 28bf fc77 113e
00000030: 24d4 bc3e 383d 15be d4a4 b6be 3bea 57bf
00000040: f57e 083e 24e7 be3e 8071 0cbf ee24 443e
00000050: 80aa d63e 29bb 9f3e 7b9b 683e a4b8 483f
00000060: 7696 11bd 2e2c f93e 97e9 98bd 4c89 8bbd
00000070: c354 003e 7077 3f3e 7c78 22bd d484 263f
00000080: 0872 85be d66a 483f 09dc d5bd 42be 89bf
00000090: e4c3 933d a015 1bbf 81dc abbe 574c e33c
000000a0: a4ae 76bf 1454 5e3f 0863 11be 04a2 f83d
000000b0: 42df ec3d f643 22be 38c1 adbe c56b 07bd
000000c0: 679a 2dbe 5855 2abf 6ab4 82bf 1a9d 0ebf
000000d0: 6254 443e 59d6 003e ac2a 323f 9160 833e
000000e0: dd52 613f 2bdd 653f c7bb 143f 6713 733f
000000f0: 326d 02bf 478b 5cbe 7113 cc3e fd0a c63c
00000100: e02d 2f3e acfe 2dbf d846 a23e 57bb 7dbf
00000110: 058d 4bbf 7c1c a7be 5d3e f0bd 3cec 133e
00000120: 57d0 47be 53b5 9f3e 0391 863e 0317 903e
00000130: 2085 f4bb 67db 5fbf 8f9e dbbe 82e8 19bf
00000140: b83c 59bf 3623 a0bd fb4c 5fbe 1963 683f
00000150: 00c6 163a 6036 533d e433 7bbd c53a 5d3f
00000160: 200a c0be 353b 5fbe 1103 bcbe 3762 83be
00000170: d872 82bb 8a46 583f d0f8 f63e f4cb 38bf
00000180: 810b a2bd f341 c5be a760 b1be 3dcd 68bf
00000190: fdca aa3d dafc 2ebf c295 493e 15c3 b2bf
000001a0: a76a 8f3e 67b0 1e3d 32d9 813e f650 013e
000001b0: 241f d5bd 3a13 253f 72df e33e 1202 99bf
000001c0: e375 2a3f 2c7c aa3e 6b94 89be f286 f73e
000001d0: f278 aabe 33c5 a53e 0c4a d03e 45d6 0fbe
000001e0: 6874 d53e 8af1 1d3f 4528 8a3d 94c8 243f
000001f0: b838 efbe 62a0 e23e b724 853e ee6e 7b3e
00000200: bf2c 333f 8a50 8c3f e772 39bf 4164 72bf
00000210: 4de6 37bf d898 1e3f b170 c63e 1b00 423d
00000220: 95f6 083e 35b1 363d 2988 58bd cb1f 043e
00000230: a084 e33e 0fb8 23bf 7874 0340 5485 a8bf
00000240: 9216 d93e 5733 b1be e9cb 11bf f444 6c3e
00000250: a46f a8be e5a0 533f 732a a2be 4427 663e
00000260: 2717 373f 70b8 e1be 6c07 7b3e 5337 463f
00000270: 2ed8 993e 80b0 3c3f da9e 9b3b bcd0 65bf
00000280: b3ac 50bf 74d5 2a3e b8ec a8bd 1767 c43e
00000290: 2435 c2bd 17a5 55bd a0d4 1fbd 6146 a0bf
000002a0: 805f 11bc f212 153e 62ce 0440 c1c6 c03f
000002b0: 64e1 d33e 9a58 c73e ce0f 06bf e61e 003b
000002c0: c2ff 16bf ea92 bbbe e87b 9ebe 0a58 0abf
000002d0: f311 a4bf 06ea a93d 9565 0fbf 6571 aebd
000002e0: 0601 bf3e 72c7 15bf 689d 12bf bf26 39bf
000002f0: b485 aabe e01d 053f 73b0 d63e 7f79 de3e
00000300: 0137 0f3f 52d9 b73e 32a6 55bf fafe 40bf
00000310: ed40 de3e 7f8d 623c c926 253f 121d 723e
00000320: d5c7 f03d 1c80 913d da81 2fbf e272 713e
00000330: 02ea 26be 84d4 2f3f 3109 e0bd 22d2 99bd
00000340: fa29 3abe e984 17bf 9a17 7b3e 9e6e 373e
00000350: a528 893e 892c 2d3f ef80 11bf 83f6 5abf
00000360: cb05 3bbf 4cc8 3abd 7ddd 6ebe 097e 21bf
00000370: 93df c33e d4db e3be 7e6d 323f 5387 65be
00000380: a127 02bf 5926 083f 08cf b5be 718a 643f
00000390: ffaa 0dbd 3230 f5be e46f 1a3f 3901 cabe
000003a0: cd30 8dbd 7a1d 163f 6f04 033f fe1c d13e
000003b0: d1af 38be 6dd6 cfbe 3899 263f 3653 abbe
000003c0: 5c3a 0d3f ca9b 40be db30 453f 00c1 06bf
000003d0: 0b26 a9bf d5e2 993e 1107 6abf 0c3c d8bd
000003e0: ba17 ed3d 0f7d 0cbe b54b c63e 569b 58bf
000003f0: 7870 603d eea9 03be c82e 95bf 1073 e13f
-0.04105696 0.03834775 -0.3878449 -0.099334225 -0.43469107 -0.15954222 0.046111364 0.22282968
1.3242055 -1.8212707 -0.6587663 0.14205927 0.368806 -0.14574134 -0.3567263 -0.8434178
0.1332968 0.3728572 -0.5486069 0.19154713 0.41926956 0.3119748 0.22715561 0.7840674
-0.03554388 0.4866652 -0.07466429 -0.06813297 0.12532334 0.18697906 -0.039665684 0.6504643
-0.2606356 0.7828802 -0.10442359 -1.0761187 0.072150975 -0.6057987 -0.3356667 0.027746363
-0.9636023 0.86847043 -0.14197934 0.12140277 0.115660205 -0.15846238 -0.33936477 -0.03306176
-0.16953431 -0.66536474 -1.0211308 -0.5570847 0.19172814 0.12581767 0.6959636 0.25659612
0.88017064 0.897906 0.58099025 0.9495148 -0.5094787 -0.21537505 0.39858583 0.024175161
0.17107344 -0.67966723 0.31694674 -0.9911398 -0.79512054 -0.3263892 -0.11730645 0.14445585
-0.19513069 0.31193027 0.2628251 0.28142557 -0.007462159 -0.87444156 -0.42894408 -0.60120404
-0.84858274 -0.07819216 -0.2180671 0.9077621 0.000575155 0.051565528 -0.061328784 0.864178
-0.37507725 -0.2179993 -0.3672109 -0.2566087 -0.0039809756 0.84482634 0.48236704 -0.7218621
-0.079123504 -0.38526878 -0.34644052 -0.9093817 0.08339498 -0.6835457 0.19686034 -1.3965784
0.28011057 0.03874245 0.2536102 0.1262854 -0.1040633 0.6448246 0.44506413 -1.1953757
0.6658613 0.3329786 -0.26871046 0.48345143 -0.332954 0.32377014 0.40681493 -0.14046581
0.41690373 0.61696684 0.06745962 0.6436856 -0.4672296 0.44262987 0.26004574 0.24554035
0.6999015 1.0962079 -0.7244095 -0.94684225 -0.71835786 0.6195197 0.38757852 0.04736338
0.13375314 0.04460259 -0.052864227 0.12902753 0.44437122 -0.63952726 2.0539837 -1.3165689
0.42400032 -0.34609482 -0.5695177 0.23073179 -0.32897675 0.8266738 -0.3167301 0.22475916
0.715197 -0.44086027 0.2451455 0.7742817 0.30047745 0.7370682 0.004749161 -0.8977163
-0.8151352 0.16682988 -0.082482755 0.383599 -0.09482792 -0.052159395 -0.039021134 -1.2521478
-0.008872867 0.14558008 2.0750966 1.5060655 0.41382897 0.38934785 -0.52367866 0.0019549667
-0.58984005 -0.36635524 -0.30953908 -0.54040587 -1.2817978 0.082965896 -0.56014377 -0.08517722
0.37305468 -0.58507454 -0.5727143 -0.72324747 -0.33305132 0.5199871 0.41931495 0.4345207
0.55943304 0.3590799 -0.8345672 -0.75389063 0.4340891 0.013827681 0.64512306 0.23643902
0.11756865 0.07104513 -0.6855751 0.2357898 -0.16300204 0.6868365 -0.10939253 -0.07510783
-0.18180075 -0.5918718 0.24520722 0.17913291 0.26788822 0.6764608 -0.5683736 -0.855324
-0.73055714 -0.045601174 -0.23326679 -0.6308294 0.3825651 -0.44503653 0.6969832 -0.22414903
-0.5084172 0.53183514 -0.35509515 0.89273745 -0.034586903 -0.47888333 0.6032698 -0.39454058
-0.06894074 0.5863873 0.5117864 0.40842432 -0.18035819 -0.4059328 0.65077543 -0.33461922
0.55167174 -0.18809429 0.7702767 -0.52638245 -1.3214735 0.30055872 -0.9141703 -0.10558328
0.11576791 -0.13719581 0.38729635 -0.84612024 0.05479476 -0.12857792 -1.1654902 1.7613239

sequential/dense_1/MatMul f4 [10, 21]
00000000: 1e61 d6bd af10 e83e a65b 26bf 99e0 49be
00000010: e9bb 41be ed3e cfbe da08 0b3f dcc9 1dbf
00000020: 7675 d53e a26d b8bd bfed 0d3e 437d ca3e
00000030: 8051 d93f ce1f d0be 10fb 8dc0 15fa 59c0
00000040: c3a7 80c0 a23f 1bbf 914c 68c0 1c89 483f
00000050: 0838 a8bf 3407 483f 4103 833f c944 1ebf
00000060: 4ec3 bc3f 5c23 2fbe 58c6 1a3f 3f67 5bbf
00000070: d86b 02c0 8d39 1b3f 6104 f0be 5ada 8ebe
00000080: 6a36 3b3f 7ae6 d33f d32b 8f3e 3515 bc3e
00000090: c6ee 9c3d 627b e93f 0b6d 63bf 7c3e 9fbc
000000a0: 209b 8b3f 5655 01bf 6818 073f 8665 9cbf
000000b0: b1a2 91bf f3ca a23f 39dc 3a3f 24ab 13bf
000000c0: faff 843e 344a 5e3e 1f50 20be b43b 31be
000000d0: 5aa4 1cc0 288f cb3f e7a4 6abf 95d9 b43e
000000e0: c565 423f 1454 2ec0 50c8 5fbf 78dd 5dc0
000000f0: 8e1d b4be 74ce b23f 0845 b03e 650f 83be
00000100: d472 383c 217a 303e 1a71 28be bc2e 913f
00000110: ea52 853f e232 183f 8705 c1be 7fc6 423f
00000120: ad2a bcbf 9dee 393f 2a68 b83c 0ded 063f
00000130: 4411 d8bd 7b71 b5be 793f 643f 856a d7bf
00000140: 95cf 163e 92be 1fc0 8d87 1abd 77fe 553f
00000150: 5a86 34bd 5e83 fa3e 01e3 033f a47e 1040
00000160: 6afe 173f 3547 b8bb 832b fcbe eb7d 2bbe
00000170: 67b3 8abf 7e3b 333f 2782 8dbd b109 64bf
00000180: 4d3a 553e 8a26 95bf eed8 e23f abe4 00c0
00000190: b82e 043c c80e a8bf eb13 adbd f3d2 e13f
000001a0: 3548 e43e 6ed7 08c0 7942 4cbf b06b 3b3f
000001b0: 1096 873f c25a 873f 1c4d 2cbe 7e6a 183f
000001c0: fd1c 12bf db2a 053f 4482 dfbf 9285 0f40
000001d0: aba6 3ebe 411f 9c3f 9b4f 04bf 2a3f 8bbf
000001e0: 4a76 c73f 462d 47be 89e5 5dbe bfc5 50c0
000001f0: b978 ab3e 27c2 1abf 18d5 0040 b3e3 03bf
00000200: acc5 80bf efef ec3b ae72 cabe f9a6 a13f
00000210: f611 f53d 8d33 3cbf db53 d53e d0a1 a8bd
00000220: 55b0 c0be b7cc fc3f f885 023f 09f1 c1be
00000230: 9dd6 2140 69cd 52bf 43d6 62bf d068 45c0
00000240: 6807 7ebf 5616 833f 1b20 933f 8604 85bf
00000250: c852 1f3f ae1c a53f b4de a63e f0e2 453f
00000260: e7a6 423f c362 2fbf de55 503d 384e 15bd
00000270: a010 323c fc87 1240 4073 dbbf fb77 293f
00000280: 50fb b33f 8884 b1bf 77d7 763f afef a4be
00000290: 3459 833f e822 513f 85d8 36bf 7661 ecbe
000002a0: fff5 c3be 4240 aebe 8ff9 c6be b7e9 693f
000002b0: 8bc2 1d3f 7bf0 8d3f afb6 8abe 5561 8cbf
000002c0: e5a9 c23e 5094 d6bf 9a5b 68be 58d3 3b3f
000002d0: 12fb 1a40 5307 c93f 62a7 bc3e 8f03 9b3f
000002e0: 22c9 a2bf 0335 3b3f 946e f7bd 57f9 85be
000002f0: 5c48 8abd 8595 53be 78c0 2c3f 6595 acbe
00000300: 1cc9 a4bf 8cb9 973e 576c 6fbf 4428 05be
00000310: 8eb9 f93e 462e d53d 45a2 bb3e b37f bb3f
00000320: 0faf 893f 45af b8bf e7ac 2a3f c708 003f
00000330: b979 2abd 9f82 1f40 8c8a babf 19dd 59bf
00000340: 830b 7bbf 2b64 3b3e
-0.104677424 0.4532523 -0.64983594 -0.19714583 -0.18919338 -0.40477696 0.5431038 -0.6163614
0.41691178 -0.09005286 0.13860224 0.39548692 1.6977997 -0.40649265 -4.4368973 -3.4058888
-4.0204787 -0.6064397 -3.6296732 0.7833421 -1.3142099 0.7813599 1.0235368 -0.6182371
1.4747102 -0.17103332 0.604589 -0.85704416 -2.0378323 0.6063469 -0.4687834 -0.27900964
0.73129904 1.6554711 0.27963123 0.3673493 0.0766273 1.8240778 -0.8883826 -0.019438975
1.0906715 -0.5052084 0.52771616 -1.2218482 -1.1377774 1.2718185 0.72992283 -0.57683015
0.25976545 0.21707994 -0.15655564 -0.17307931 -2.4475312 1.5903063 -0.9165787 0.35322252
0.7593654 -2.7238817 -0.8741503 -3.4666424 -0.35178798 1.3969254 0.34427667 -0.25597683
0.011257846 0.17234088 -0.16449395 1.1342387 1.0415928 0.5945264 -0.3769953 0.7608413
-1.4700524 0.7262972 0.022510607 0.5270546 -0.10550168 -0.3543814 0.8915935 -1.6829382
0.14727624 -2.4960065 -0.037726928 0.8359141 -0.04407344 0.4892835 0.51518255 2.2577295
0.5937258 -0.005623723 -0.49251947 -0.16747253 -1.0835999 0.7001265 -0.0690959 -0.8907729
0.20823021 -1.1652386 1.7722452 -2.0139568 0.008067779 -1.3129511 -0.08451065 1.7642502
0.4458634 -2.1381488 -0.7978893 0.73211193 1.059267 1.0574572 -0.1682629 0.59537494
-0.5707548 0.5201852 -1.7461629 2.2425275 -0.18618266 1.2197038 -0.5168397 -1.0878651
1.5582974 -0.19450864 -0.21669592 -3.2620695 0.33490542 -0.604525 2.0130062 -0.51519316
-1.0060325 0.0072307508 -0.3954062 1.2629081 0.119663164 -0.7351616 0.4166554 -0.08233988
-0.3763453 1.9749974 0.5098567 -0.37879208 2.528724 -0.8234468 -0.8860819 -3.0845222
-0.9923005 1.0241191 1.1494173 -1.0392005 0.6223569 1.2899377 0.32591784 0.77299404
0.7603592 -0.68510073 0.05086314 -0.03645155 0.0108682215 2.2895498 -1.7144547 0.661987
1.406107 -1.386857 0.96422523 -0.32214114 1.0261598 0.8169389 -0.7142413 -0.46168107
-0.38273618 -0.340334 -0.38862273 0.91372246 0.61624974 1.1089014 -0.27092502 -1.0967203
0.38020244 -1.6764011 -0.22691193 0.7336936 2.421574 1.570536 0.36846453 1.2110461
-1.2717631 0.73127764 -0.12081638 -0.26166794 -0.06752083 -0.20662506 0.67481184 -0.3370773
-1.2873874 0.2963375 -0.9352469 -0.13003641 0.4877438 0.104092166 0.3664724 1.4648346
1.0756549 -1.4428488 0.6667008 0.50013393 -0.04161999 2.4923475 -1.4573531 -0.85102993
-0.9806444 0.1829993

sequential/dense_2/MatMul f4 [8, 10]
00000000: 6bbf 1840 62ed dcbe 1e24 9f3d ab22 733f
00000010: c3bf b53e bb11 9c3e 8c88 833f 4ea1 0bc0
00000020: 3027 2e3e affa 97c0 a080 3ebf 2e40 a3be
00000030: ceb3 fe3f 2b23 54c0 9798 17be 4372 b7c0
00000040: c7d0 b73f 3b36 d5bf 6188 71c0 9fb8 17bf
00000050: 2e7a 8e3f 14e6 c7bf 334a b43f 59c6 8d3f
00000060: 0da0 0abf faed 173f fdd8 79bf 4f4f ae3f
00000070: b823 d73e c9b5 d8be 3906 19c0 5edd 433f
00000080: 6af6 1ec0 f5d8 5e3f 8c5a 163f 7811 243f
00000090: 5d86 a33e 99e4 7ebf 169f 6a3f f3b4 8abf
000000a0: c673 f43f 439a e33e 6bfb b93f 987f 1abf
000000b0: 00ca e63d a678 7e3f af87 25c0 95b1 cf3f
000000c0: e2ef 7abf 0637 963e ed07 45c0 de28 0d3f
000000d0: d937 c9bf 912d 3dbf 8030 f7bf 0a49 8dbf
000000e0: feb2 a03d a358 5b3e dfc5 3740 f52c 8d3f
000000f0: 557d b7bf f57d 1940 3660 1bbf af15 87be
00000100: 8617 2fc0 1f5e e33f 370a 07c0 be52 8ebf
00000110: 43d0 2f3f 528f 553f 151f 1b3e 927d 32c0
00000120: 3cb6 a73e 1ad8 02be 4fa0 213f 2ff0 25bf
00000130: 2da5 8cbf 0d9d a63e e4dd 5f3e 4f1c 2740
2.3866832 -0.4314986 0.07770561 0.94974774 0.35497865 0.30482277 1.0276046 -2.1817203
0.17007136 -4.749351 -0.74415016 -0.31884903 1.9898622 -3.3146465 -0.14804302 -5.732698
1.4360589 -1.6657175 -3.773949 -0.59266084 1.1131036 -1.5617089 1.4085144 1.1076156
-0.5415047 0.593475 -0.9759672 1.3617953 0.4201944 -0.4232619 -2.3910048 0.76509655
-2.48379 0.870498 0.58731914 0.64089155 0.3193845 -0.9956756 0.91648996 -1.0836471
1.9097831 0.4445363 1.4529852 -0.6035094 0.11268997 0.99402845 -2.5864065 1.6226069
-0.9802228 0.29338855 -3.0786088 0.55140483 -1.5720168 -0.73897654 -1.9311676 -1.1037915
0.0784664 0.21420531 2.871452 1.1029345 -1.4335123 2.3983128 -0.6069368 -0.2638373
-2.7358108 1.7763098 -2.1099985 -1.1119001 0.6867716 0.83421814 0.15148576 -2.7889142
0.3275622 -0.12777749 0.63135237 -0.64819616 -1.0987908 0.32541695 0.21861988 2.6111028
