gesture_model/keypoint_classifier/keypoint_classifier.tflite (tflite, 6544 bytes, 6 tensors)

sequential/dense/BiasAdd/ReadVariableOp f4 [20]
0	0x3babc41e	0.005241885
1	0x3c83b9b2	0.016079757
2	0x3e54bd48	0.2077533
3	0x3d117a97	0.0355173
4	0x3e23d6ff	0.15999983
5	0x3eeb9293	0.46010265
6	0xbe680c28	-0.22660887
7	0x3ecb395f	0.39692208
8	0x3ed197d0	0.40936136
9	0xbe3072b9	-0.17231263
10	0xbccfb5d1	-0.025355252
11	0xbe9b3aae	-0.30318207
12	0x3ee99bf7	0.45626804
13	0x3dec18c3	0.115281604
14	0x3ceb5e8f	0.028731612
15	0x3eb59e3e	0.35472292
16	0xbd568019	-0.052368257
17	0xbe911828	-0.28338742
18	0x3e8450c7	0.25842878
19	0x3ef86c1f	0.4851999

sequential/dense_2/BiasAdd/ReadVariableOp f4 [5]
0	0x3c5fff7b	0.013671751
1	0xbf0d5084	-0.5520098
2	0x3e96fc7f	0.29489514
3	0x3e41f3ab	0.18940608
4	0xbc7f0ef4	-0.01556753

sequential/dense_1/BiasAdd/ReadVariableOp f4 [10]
0	0x38e3c005	0.0001085997
1	0xbd5f0fac	-0.054458305
2	0xbcfd3afb	-0.030911913
3	0x3d923d2c	0.07140574
4	0x3c846055	0.016159216
5	0xbc176696	-0.009240767
6	0x3bf688b8	0.0075236224
7	0xbdb2a5d0	-0.087230325
8	0x3f2af788	0.6678395
9	0x3f17ae5b	0.5925042

sequential/dense/MatMul f4 [20, 42]
0	0x3e727798	0.23678434
1	0xbe980e8f	-0.29698607
2	0xbc45f2bc	-0.012081798
3	0x3fc28301	1.5196229
4	0x3f0682fa	0.52543604
5	0x3d400974	0.046884015
6	0x3c4cf7db	0.012510265
7	0x3e492ceb	0.19646041
8	0xbf9bd5b7	-1.2174596
9	0xbd23b481	-0.039967064
10	0x3eb55dab	0.35423025
11	0xbd7d6935	-0.06186791
12	0x3ecffbff	0.40621945
13	0x3e433539	0.19063272
14	0x3f082884	0.5318682
15	0xbf01a678	-0.50644636
16	0xbe4bae73	-0.19890766
17	0xbed68940	-0.41901588
18	0x3dd8c68c	0.10584745
19	0xbeee9170	-0.46595335
20	0x3d4b048b	0.04956488
21	0xbec05402	-0.37564093
22	0xbf018e14	-0.5060742
23	0xbe06ba1e	-0.13156936
24	0xbf13ea9b	-0.57779855
25	0xbd23e92b	-0.04001729
26	0x3f374eff	0.71604913
27	0xbd380979	-0.04493091
28	0x3d98fc3a	0.074699834
29	0x3c17d562	0.009267183
30	0xbf3aa829	-0.7291284
31	0x3eb0c578	0.34525657
32	0xbf8f1bfc	-1.1180415
33	0x3eda356b	0.4261888
34	0x3f13f172	0.5779029
35	0x3ede3605	0.4340059
36	0xbd4b104c	-0.04957609
37	0x3e0ca9fe	0.13736722
38	0xbe119586	-0.14217195
39	0x3f484407	0.782288
40	0xbe1078fc	-0.14108652
41	0x3f36d605	0.7142032
42	0xbbf499c0	-0.0074646175
43	0x3e9ad0b2	0.30237347
44	0x3ed44b4f	0.41463706
45	0x3f97000d	1.179689
46	0x3dbdc6be	0.09266423
47	0xbdf4d660	-0.11954951
48	0x3c0370d7	0.008022509
49	0xbef0a6ee	-0.47002357
50	0xbd6c28ad	-0.05765598
51	0xbf58753c	-0.84553885
52	0xbea2d2f2	-0.31801564
53	0xbeae23c5	-0.34011665
54	0x3f1629e4	0.5865767
55	0x3e2ad492	0.16682652
56	0x3c90cd3a	0.017675985
57	0x3df6781f	0.1203463
58	0x3e6f20f8	0.2335242
59	0x3e70d5ea	0.23519102
60	0x3d2ba5f1	0.0419063
61	0xbf0efef4	-0.5585778
62	0xbd8f1474	-0.06986323
63	0x3cd71be0	0.026258409
64	0xbe9d02bc	-0.3066615
65	0xbe8d272f	-0.27568957
66	0xbe2856fd	-0.16439433
67	0xbf029f6f	-0.51024526
68	0xbd58a5cf	-0.052892502
69	0xbee40f29	-0.44542816
70	0xbebe9195	-0.37220445
71	0xbf42c891	-0.7608729
72	0xbe5b2df6	-0.21404251
73	0xbec28d57	-0.3799846
74	0xbea2e559	-0.31815603
75	0xbf4d073b	-0.8008916
76	0xbea87231	-0.3289962
77	0x3f0b65af	0.5445203
78	0xbefb5e8f	-0.4909558
79	0xbf0eda37	-0.5580172
80	0xbe42892f	-0.18997644
81	0xbf2ea558	-0.68221045
82	0x3ddaf312	0.10690893
83	0xbf1bc6c6	-0.6085018
84	0x3e9710a6	0.2950489
85	0xbd767c80	-0.060177326
86	0xbe08084e	-0.13284418
87	0x3fe07acd	1.7537476
88	0x3d5049ed	0.05085175
89	0x3e85055e	0.25980657
90	0x3efc38ec	0.49262178
91	0x3e7882ab	0.24268596
92	0x3cbf45cc	0.023348711
93	0xbe73458e	-0.23757002
94	0xbf1925ce	-0.5982331
95	0xbf626b6f	-0.8844518
96	0xbd856948	-0.065142214
97	0x3e81b211	0.25331166
98	0x3e83ef9c	0.25768745
99	0xbc107fd3	-0.008819538
100	0x3f31761b	0.6932084
101	0xbea64ca9	-0.32480362
102	0x3f075dd2	0.52877533
103	0xbf8e5cb9	-1.1122047
104	0x3f34cebb	0.70627946
105	0x3dcfa415	0.10138718
106	0x3e2d8574	0.1694544
107	0x3e9aed9f	0.30259416
108	0xbead9eea	-0.33910304
109	0xbdbf04ee	-0.09327112
110	0x3f10dac4	0.5658381
111	0xbf870bd4	-1.0550485
112	0x3f5ff7cf	0.874875
113	0xbe597fc5	-0.21240146
114	0x3ef131ec	0.471084
115	0x3ea584e2	0.32327944
116	0xbf14444c	-0.5791671
117	0xbe8eefd3	-0.27917346
118	0xbdbfdd37	-0.09368365
119	0xbf1e783f	-0.6190223
120	0x3f0274c6	0.5095943
121	0xbd92dd26	-0.07171087
122	0xbe56ca7c	-0.20975679
123	0x3f01d994	0.5072262
124	0xbd5e4c94	-0.05427225
125	0x3eed6e58	0.46373248
126	0x3db1a028	0.086731255
127	0x3dafe444	0.0858846
128	0x3e33ef88	0.17571843
129	0x3f9e68df	1.2375754
130	0xbfa2ee28	-1.272893
131	0x3e9c70ef	0.30554911
132	0xbf902d41	-1.126381
133	0x3e53fa48	0.20700943
134	0xbf8a1dcd	-1.0790344
135	0xbde33f71	-0.11096085
136	0xbf16f463	-0.58966655
137	0xbe97271f	-0.29522035
138	0x3df4cbb0	0.11952913
139	0x3d9124d3	0.07087102
140	0x3d997983	0.0749388
141	0xbc142aec	-0.0090434365
142	0x3ea6c21e	0.32569975
143	0xbe35c19a	-0.17749634
144	0xbebb72e3	-0.3661109
145	0xbee55039	-0.44787768
146	0x3f3b9a9c	0.7328279
147	0x3ecb290b	0.3967975
148	0x3ee869de	0.4539327
149	0xbdef3463	-0.11679914
150	0x3ec4b769	0.3842118
151	0xbe329b50	-0.1744206
152	0xbf986875	-1.1906878
153	0xbe7b5e54	-0.24547702
154	0x3ea8f4b0	0.32999182
155	0x3ebfbda2	0.37449366
156	0x3e9a0ac8	0.3008635
157	0x3ebcf205	0.36903396
158	0xbe897648	-0.26848054
159	0xbeb44031	-0.35205224
160	0xbf3f9d44	-0.74849343
161	0xbd08058d	-0.03320842
162	0x3e7751d3	0.24152307
163	0x3f3d99b4	0.7406266
164	0x3ee6e389	0.4509547
165	0x3e42bf9d	0.19018407
166	0x3f472fcb	0.778073
167	0xbd27b9d3	-0.0409487
168	0x3d8aac88	0.06771189
169	0xbe70c2a8	-0.23511755
170	0x3d97e841	0.07417346
171	0xbe7c1051	-0.24615599
172	0x3e7966c2	0.24355605
173	0xbf4953d2	-0.78643525
174	0x3f568f24	0.83812165
175	0xbefc5d2f	-0.49289843
176	0x3f5f5244	0.872349
177	0xbf4cc838	-0.7999301
178	0xbf14e89e	-0.58167446
179	0xbf087140	-0.53297806
180	0xbd4d0636	-0.05005475
181	0xbde8afce	-0.11361657
182	0xbe54e39e	-0.20789954
183	0x3f028dae	0.50997436
184	0xbecdb64b	-0.4017814
185	0x3f706579	0.93904835
186	0xbdd430b0	-0.10360849
187	0xbe3fdb34	-0.18735963
188	0xbf4d6187	-0.8022694
189	0xbe661abf	-0.2247114
190	0xbf05f1e6	-0.5232223
191	0x3eb2f921	0.34955695
192	0xbe60a341	-0.21937276
193	0x3f75b59f	0.95980257
194	0x3e7389e7	0.23783074
195	0x3d483858	0.04888186
196	0xbee6475f	-0.44976327
197	0xbf11c3eb	-0.5693957
198	0xbde9427e	-0.113896355
199	0xbecf44e0	-0.40482235
200	0x3ec7bd20	0.39011478
201	0x3ef55950	0.47919703
202	0x3ec46cd8	0.3836429
203	0x3eaa58f3	0.33270988
204	0x3f1a9eb3	0.60398406
205	0xbf214dbc	-0.6300924
206	0x3f05668f	0.52109617
207	0xbef21cdb	-0.4728764
208	0x3f253c79	0.645454
209	0xbdbf3af4	-0.09337416
210	0x3e742424	0.23841912
211	0x3e12ff78	0.14355266
212	0xbdbf041e	-0.09326957
213	0xbe9d5033	-0.3072525
214	0xbe4abc65	-0.1979843
215	0xbf3f4dbb	-0.7472798
216	0x3ecf2af1	0.4046245
217	0xbd85eaef	-0.06538951
218	0x3d787f14	0.060668066
219	0xbeb2fbc8	-0.3495772
220	0xbd67a0f8	-0.056549996
221	0xbf5bf31b	-0.85917825
222	0xbf14da4a	-0.5814558
223	0xbdf12672	-0.11774911
224	0xbf0e6665	-0.5562499
225	0x3de82fd7	0.1133725
226	0xbf43b82a	-0.7645289
227	0xbed10863	-0.4082671
228	0xbe905c1b	-0.2819527
229	0xbf6d9a07	-0.9281315
230	0xbd990d6b	-0.074732624
231	0xbebf8634	-0.37407076
232	0x3e80e5df	0.25175378
233	0x3f37a04c	0.7172897
234	0xbe92dad8	-0.2868259
235	0x3ea64cf5	0.3248059
236	0xbebbf86e	-0.36712974
237	0xbf1e0426	-0.6172508
238	0x3f638647	0.88876766
239	0xbe3b722b	-0.1830527
240	0x3ed9e869	0.42560127
241	0x3e60c893	0.21951513
242	0xbf04a8cf	-0.5182008
243	0x3f1fe3f3	0.624572
244	0xbedaccdb	-0.42734417
245	0xbf25c9ae	-0.64760864
246	0xbdb2eb87	-0.087363295
247	0x3d72369c	0.05913411
248	0xbe85aee9	-0.26110008
249	0x3ede8e06	0.4346773
250	0xbf03431c	-0.51274276
251	0x3e90692d	0.28205243
252	0x3d8b9698	0.06815833
253	0x3e93bb88	0.28854012
254	0x3f05793e	0.52138126
255	0x3ddb92d5	0.10721365

sequential/dense_1/MatMul f4 [10, 20]
0	0x3ee65331	0.44985345
1	0x3eb75482	0.35806662
2	0xbfd14794	-1.6349969
3	0xbd3093c7	-0.04310968
4	0xbf9832fc	-1.1890559
5	0xbf9f1df4	-1.2431016
6	0x3df17460	0.11789775
7	0x3cd23bb7	0.02566324
8	0x3ec6a521	0.38797858
9	0x3f9c17f1	1.2194806
10	0xbbbae1f8	-0.005703207
11	0xbfd6fdad	-1.6796166
12	0x3f9ba336	1.2159183
13	0xbebf5aa3	-0.37373838
14	0xbd195ed5	-0.037443954
15	0xbeb0c426	-0.3452465
16	0x3e82d8c8	0.25556016
17	0x3f535d85	0.82564574
18	0x3e3715a9	0.17879356
19	0xbd93b0dd	-0.07211468
20	0xbd152179	-0.036408875
21	0xbe9eb430	-0.30996847
22	0x3e2da2ce	0.16956636
23	0xbe3e9793	-0.18612508
24	0xbee0350e	-0.43790478
25	0x3e973ea3	0.29539976
26	0x3e42183b	0.18954556
27	0xbec3dc18	-0.38253856
28	0xbf00312b	-0.50075024
29	0x3e0245d1	0.12721945
30	0x3e099fb1	0.13439824
31	0xbe405b0c	-0.18784732
32	0xbeea6667	-0.45781252
33	0xbc2f8576	-0.010712972
34	0x3dc3f1fd	0.0956764
35	0xbd6d8342	-0.057986505
36	0x3da4af5d	0.080412604
37	0x3e44ab22	0.19205907
38	0x3cb68432	0.022279833
39	0xbee61595	-0.4493834
40	0x3f312db9	0.6921039
41	0xbf1a243a	-0.6021153
42	0xbf991b79	-1.1961509
43	0xbcb435ae	-0.021998253
44	0x3f0fe567	0.56209415
45	0x3ee5db54	0.44893897
46	0x3f910d00	1.1332092
47	0x3dafc768	0.085829556
48	0xbfacbaf4	-1.3494554
49	0x3f613962	0.87978184
50	0x3c4d95fc	0.012547966
51	0x3f1c7e7f	0.6113052
52	0xbf0c6cac	-0.5485332
53	0x3ed12fbb	0.40856728
54	0xbf783b7f	-0.96965784
55	0xbefa36b2	-0.48869854
56	0xbf116546	-0.56795156
57	0x3f44cb2e	0.7687253
58	0x3f8a4cff	1.0804747
59	0xbe99c107	-0.3003008
60	0x3fb68983	1.4260715
61	0x3f0f40aa	0.55958045
62	0xbe0046fe	-0.12527081
63	0x3f36477b	0.7120282
64	0x3fd99de9	1.7001315
65	0xbf93d927	-1.1550645
66	0xbef9de27	-0.488023
67	0xbe29c295	-0.16578133
68	0xbf048481	-0.51764685
69	0xbea6a2ea	-0.3254617
70	0x3dee087a	0.116227105
71	0x3f279d4a	0.6547438
72	0xbe0e5ccb	-0.13902585
73	0xbf5d3a2b	-0.8641688
74	0x3f9f2971	1.2434522
75	0x3e8fb2aa	0.28065997
76	0xbfe31983	-1.774216
77	0x3f29af04	0.6628268
78	0x3fc7049c	1.5548282
79	0xbe28b3b5	-0.16474803
80	0xbe675f26	-0.2259489
81	0x3ef5393e	0.47895235
82	0x3f059f8c	0.52196574
83	0x3fc337bd	1.5251385
84	0xbfddb765	-1.7321593
85	0xbe92e2de	-0.2868871
86	0x3f5c3d8a	0.860314
87	0x3f02abe5	0.5104354
88	0xbfa03fc7	-1.2519463
89	0x3f67d597	0.9056029
90	0x3fe95011	1.8227559
91	0x3fdc5f3d	1.7216564
92	0x3e824130	0.2544036
93	0x3f59b684	0.8504412
94	0x3f96b411	1.1773702
95	0xbf47164a	-0.77768385
96	0xbe2ee1bb	-0.17078297
97	0x3d5d5d59	0.0540441
98	0x3ee6adbd	0.45054427
99	0x3ebe7058	0.37195086
100	0xbd7bae70	-0.061445653
101	0xbe0f31c5	-0.1398383
102	0xbec84a22	-0.3911906
103	0xbd12593c	-0.03572963
104	0xbeae15d0	-0.34001017
105	0xbe963dfa	-0.2934416
106	0xbdf73440	-0.12070513
107	0xbea950b6	-0.3306939
108	0x3e82ea56	0.2556941
109	0xbe4a2c7f	-0.19743536
110	0xbe842a81	-0.25813678
111	0xbd6f5ca8	-0.058437973
112	0xbe66a282	-0.2252293
113	0xbeb71b5d	-0.35763064
114	0x3ecd0bd1	0.40048078
115	0xbec40f50	-0.38292933
116	0x3e3a07f3	0.18167095
117	0xbe5ada38	-0.21372306
118	0xbce37210	-0.02776435
119	0xbecfdce0	-0.40598202
120	0xbcf6e203	-0.030137068
121	0x3f1fa0dc	0.62354827
122	0x3f61a8c8	0.88148165
123	0x3fbe4d42	1.4867327
124	0x3f21c84b	0.6319625
125	0x3ef6edd7	0.48228332
126	0xbea0f2bf	-0.314352
127	0xbfa884a1	-1.3165475
128	0xbf11dd65	-0.56978446
129	0xbf8e3cd6	-1.1112316
130	0x3f4bc296	0.7959379
131	0x3faa22e1	1.3291894
132	0xbf9f47f7	-1.2443837
133	0xbd8a81fe	-0.06763075
134	0x3e6f8179	0.23389234
135	0xbe219244	-0.15778452
136	0xbf8a43f4	-1.0801988
137	0xbfd592bb	-1.6685404
138	0x3eb73214	0.35780394
139	0x3f71be43	0.9443094
140	0x3f042bc9	0.5162931
141	0x3dd1e43b	0.1024861
142	0xbfefea4c	-1.8743377
143	0xbf9d5045	-1.2290121
144	0x3f831f64	1.0243955
145	0xbfad15dc	-1.3522296
146	0xbd93568b	-0.07194241
147	0x3e22c222	0.15894368
148	0xbebe561b	-0.37175068
149	0x3fa9ee28	1.3275805
150	0xbf84164a	-1.0319302
151	0xbf75256e	-0.9576024
152	0x3ea5cb94	0.3238188
153	0x3eb0d741	0.34539226
154	0xbe83cc35	-0.25741735
155	0x3f3e2c42	0.7428628
156	0x3f934f1c	1.1508517
157	0x3fb2df25	1.3974348
158	0x3ecb0f0c	0.39659917
159	0x3e872651	0.2639642
160	0x3e70c36c	0.23512048
161	0xbf780928	-0.9688897
162	0xbec4c4e4	-0.38431466
163	0x3e3d28ec	0.18472642
164	0x3e9631c9	0.29334858
165	0x3efa5d1f	0.4889917
166	0xbf8bdc5b	-1.0926622
167	0x3df5dc7f	0.12004947
168	0xbeb2b266	-0.34901732
169	0x3f9652f4	1.1744065
170	0x3f3d1914	0.7386639
171	0xbe3261b3	-0.17420082
172	0xbfe8911c	-1.8169284
173	0xbe411c54	-0.18858463
174	0xbf09131a	-0.5354477
175	0x3dc7be23	0.097530626
176	0xbe950863	-0.2910796
177	0xbfe3f01c	-1.780765
178	0x3f948ac8	1.1604853
179	0xbf48dbeb	-0.7846057
180	0xc0262e58	-2.5965786
181	0xbf221918	-0.6331954
182	0x3ed13cde	0.4086675
183	0xbfb6b498	-1.4273863
184	0xbd01e92e	-0.031716518
185	0x3f9beab4	1.2181001
186	0xbe9018f8	-0.2814405
187	0x3f17e386	0.5933155
188	0x3f87f5cb	1.0621885
189	0xbf18a08c	-0.59619975
190	0xbd72f169	-0.059312258
191	0xbeda8e26	-0.42686576
192	0x3ff5a05c	1.9189563
193	0x3e8f0446	0.27932948
194	0xc0108b8e	-2.2585177
195	0x3f8df398	1.1089964
196	0x3f6c34a7	0.9226784
197	0x3ebaa66e	0.364551
198	0xbec13acd	-0.37740174
199	0x3ec465fb	0.38359055

sequential/dense_2/MatMul f4 [5, 10]
0	0xbfde6a9b	-1.7376283
1	0xbc9d76a4	-0.019221611
2	0xc02aefc5	-2.6708844
3	0xc0781739	-3.8764174
4	0x3fa23236	1.2671573
5	0xbe063aaa	-0.13108316
6	0xbeacc426	-0.337434
7	0xc0bd8140	-5.9220276
8	0xbfb7b4ee	-1.435209
9	0xc03b2f18	-2.9247494
10	0x400d56b1	2.2084162
11	0x3eb79fe2	0.35864168
12	0x3fc99298	1.5747862
13	0xbf9726ca	-1.1808712
14	0x3e82cb97	0.25545952
15	0xbed247a7	-0.4107029
16	0xc0526e68	-3.2879887
17	0x40274fcb	2.6142452
18	0x3f2796de	0.6546458
19	0x3c6572d8	0.014004432
20	0xc0a283ad	-5.0785737
21	0x3ee4df44	0.44701588
22	0xc08611ae	-4.189658
23	0x4030b62d	2.7611191
24	0xbf92dc67	-1.1473511
25	0x3e00aaec	0.12565202
26	0x3fb38798	1.4025755
27	0xbfc4e027	-1.5380906
28	0xc02728f8	-2.6118755
29	0x3f02489a	0.5089203
30	0xbfbc8e46	-1.4730918
31	0x3e316ce2	0.17326692
32	0x3c1c91ba	0.009556228
33	0x40186760	2.3813095
34	0xbe3a61dd	-0.18201394
35	0x3ebb4b28	0.36580777
36	0x3fa5d40b	1.2955335
37	0x3fdd9dfc	1.7313838
38	0xbfa5eb63	-1.2962459
39	0xbeb7ccc9	-0.35898426
40	0x3d41a303	0.0472746
41	0xbf174462	-0.5908872
42	0xbfe03c47	-1.7518395
43	0xc0198d5a	-2.3992524
44	0xbf8c18d6	-1.0945079
45	0xbe59bed0	-0.21264195
46	0xbf1b6ff2	-0.6071769
47	0x3f346982	0.7047349
48	0x3fba0391	1.4532338
49	0x3fce33be	1.610954
