gesture_model/keypoint_classifier/keypoint_classifier.tflite (tflite, 6588 bytes, 6 tensors)

sequential/dense/BiasAdd/ReadVariableOp f4 [20]
00000000: 7bdf c1be f677 cebe ec3b fcbe 9874 3cbf
00000010: 9497 8bbc 13b8 6cbf d83c 3fbe ba61 cbbe
00000020: 60b9 8dbe 6a61 acbe a135 22bf 5bcb 0e3c
00000030: 048c 26bf 099c c0be c00d b5be 625a 8cbe
00000040: 12b1 f3be 2183 fdbe 8c66 06bf 972f 71bf
-0.37865815 -0.40325898 -0.49264467 -0.7361541 -0.017040052 -0.92468375 -0.18675554 -0.39722997
-0.27680492 -0.3366807 -0.6336308 0.008715476 -0.65057397 -0.37619045 -0.35362053 -0.27412707
-0.4759603 -0.49514106 -0.52500224 -0.9421324

sequential/dense_2/BiasAdd/ReadVariableOp f4 [6]
00000000: 7668 90bc 5917 3dbf 44a1 cd3e 1da9 cbbe
00000010: 55fd d43e eab8 e63e
-0.017627936 -0.7386375 0.40162098 -0.3977746 0.41599527 0.45062953

sequential/dense_1/BiasAdd/ReadVariableOp f4 [10]
00000000: af94 9e3e 38ec a83e 7cf1 fabd dc70 1b3f
00000010: b197 61be eb5b 5e3e 1a06 733f 0653 393e
00000020: a5d1 de3e c134 4e3f
0.30972812 0.3299272 -0.12253091 0.60719085 -0.22030522 0.21714751 0.94931185 0.18098077
0.4351932 0.80549246

sequential/dense/MatMul f4 [20, 42]
00000000: 970f 76be 42ad a4bd 8808 eaba bb24 77bd
00000010: eb0a 13bd f7ca e73b c9be 103c 105f 353d
00000020: c932 b1bc 39ef 3b3d 87f9 2fbd 1f7b 9a3c
00000030: 9eb1 03bd 92ef 3e3b 6000 85bc 9791 a93c
00000040: 94f8 83bc 8e89 373c d524 ad3b 876c 223d
00000050: 0f59 903b bb58 5f3d 7f25 c13c facc 9d3d
00000060: b5be d03c a26a 903d b726 593d 5063 bc3d
00000070: 88c6 1e3d 3849 9c3d ccfc 92bc e548 053e
00000080: 6322 6c3e cf6b c8bf 5fa7 923d f4c8 363e
00000090: 99c5 7abd 3c4e 003e cf22 eebd 3dad 0d3e
000000a0: 96ff 91be 79db 2a3e 20d7 703d cd14 91be
000000b0: 9a37 22be 0920 dd3d 0d95 06be 7339 a0be
000000c0: 8ce4 16be 85cc a0be c4a0 8cbe b306 4abe
000000d0: 5cda 0ebe 3730 603e 912c 93bc 43cc 5fbd
000000e0: 47ae acbc ada8 33be fbf4 7abc 0d7f 08be
000000f0: 8f50 12bd 8fd8 423e 491d ca3c 6f25 28be
00000100: cace 863d b590 c13d 5a5d c53d 9d03 643e
00000110: 3957 56be a413 033e cca7 9cbd cb13 c1bd
00000120: 556a 843e 1eee 963e 9ae6 ec3d f1c2 853f
00000130: 02b4 4abe 37d1 d83d 4003 a2bd 7321 c0bd
00000140: d6e0 a03d 960f 503e 27d5 0b3f a8c5 503f
00000150: dcff b5bd 8051 ce3d e3c4 49bd 1296 433f
00000160: beef 4b3d ac36 bd3e 4b66 3cbe 74a3 2b3e
00000170: d05f 40bf 9872 6b3e f722 8b3d c244 673e
00000180: be7c 2039 4913 ac3d 4034 7f3d 6ec4 463d
00000190: 4650 ac3d e0ac 2f3d 63af 003c 1a6a 2c3e
000001a0: fa80 06bc cf00 103d bb8a f73c 1c52 273d
000001b0: d8ae d53c 57e8 193d fe48 3cbe 1003 e93d
000001c0: 0440 a4bc 431f a1bd 10ec 753e 782c 95be
000001d0: 1da7 153f bee4 fabe f45d 20be 3c89 9f3d
000001e0: 463b dabc eadf a9bd f878 543e e3b4 b7be
000001f0: e1e9 eb3e 7c4a 39bf 575d 26be d1f6 25be
00000200: c0d1 543f 7c0d 87be 2468 073f 822b 97be
00000210: 96a8 343f 4a40 36be ef04 663f 9c7f 61be
00000220: 9448 c03d e24b a13b c6eb 63bd 4b82 373c
00000230: 40b7 0dbe f413 b23d 0683 f8bd dd86 163d
00000240: 4ecf 1d3e 4b79 5bbc 63fd 5dbd 4800 eebc
00000250: aa38 97bd aa76 a1bc 9bfc 60bd 2992 e8bb
00000260: 3c41 9f3d 02c3 86bc 7c0d 10be 0620 16bc
00000270: d816 99be 6aa5 e5bc 6064 e2be f22e b6bd
00000280: 913f 453d 9639 6b3b 9ae4 49be 39d8 a9bc
00000290: e549 f0be d25f 133b 9e9a 18bf cd9e 983d
000002a0: f080 37bd 43f7 11be 2d24 f3bd 16ee 7abe
000002b0: dac0 8b3d 9baa 1fbe fe4f de3d f8b2 fbbe
000002c0: 0227 6b3e aaa7 44bf 2004 9fbd 1dbf e1bd
000002d0: 4a48 373c c250 16bd 00d2 34bc 74db 82be
000002e0: a04b 32bd 179e 3abe ec62 3fbe 202b 28be
000002f0: 4a55 0d3d 3d7d 463e fe46 1a3d 8880 a73e
00000300: ffcf 3f3d 6fc2 9e3e c33a 8bbb f901 2e3d
00000310: 606a 4d3d 7120 423e 7371 38bd faef bf3e
00000320: 2092 fbbd 6d9f 0f3f 7302 86bd bfcd 623d
00000330: 6672 e33c b719 7e3e 16ee 49bd 3194 cc3e
00000340: 55e8 83be 58e3 173f 4d23 83be 3028 253d
00000350: fed6 22bf 745e 703f fdb7 8bbe a9ea e33e
00000360: 9a5a 82bd eda4 093e 4fb6 2fbd b478 803a
00000370: 0bbb a1be a944 0d3e 646a e33c 4fdd 9b3d
00000380: 76dc ee3d f24e 2c3d a90d de3d cfd7 e9bc
00000390: 2ceb 5dbe bf99 ab3d c5dc 0a3c 243b 65bd
000003a0: d9e5 f2bc c7d7 42be c8e9 50be 86ce 6fbd
000003b0: 7839 573d ac62 563c d756 a43d 6cac 14be
000003c0: 99a2 02bf 3235 12bf 3361 8abf cfa6 febe
000003d0: 2cf6 a83e ea61 c6bc 3870 533e 3eab 8fbd
000003e0: 80c5 19be 7242 86be 3d45 3bbf 9325 9abe
000003f0: 3081 ebbd d6f7 71be 210a 6d3f 2f1d 5f3f
-0.24029385 -0.08040859 -0.0017855326 -0.060337763 -0.035899084 0.007073756 0.008834549 0.04428011
-0.021630662 0.045882437 -0.042962577 0.018857537 -0.03215181 0.0029134494 -0.01623553 0.020699305
-0.016109742 0.011202229 0.0052839317 0.03965428 0.004405148 0.05452798 0.02357745 0.07705112
0.025481561 0.070515886 0.053015437 0.0919863 0.038763553 0.07631153 -0.017942809 0.13016088
0.23059992 -1.56579 0.0716083 0.17850095 -0.0612236 0.12529844 -0.11627733 0.13835616
-0.2851531 0.16685285 0.05879891 -0.28336182 -0.15841523 0.10797126 -0.13142796 -0.3129383
-0.14735621 -0.31406036 -0.27466404 -0.19729118 -0.13950485 0.21893393 -0.017965587 -0.05463816
-0.021079196 -0.17544813 -0.015317197 -0.13329716 -0.035721358 0.19027923 0.024672167 -0.1642053
0.06582411 0.09451429 0.09636946 0.22267003 -0.2093171 0.12800461 -0.07649192 -0.09427603
0.25862375 0.29478544 0.11567421 1.0450116 -0.1979523 0.105867796 -0.07910776 -0.0938138
0.07855384 0.20318446 0.5462212 0.815516 -0.08886692 0.10074139 -0.04926003 0.76400864
0.049789183 0.36955774 -0.18398397 0.16761571 -0.751462 0.22992933 0.067937784 0.22584823
0.00015305259 0.08402116 0.06230569 0.048527174 0.084137484 0.042889476 0.007854315 0.1683735
-0.008209461 0.03515702 0.030217519 0.04084979 0.026084349 0.037575092 -0.1838722 0.11377537
-0.020050056 -0.07867291 0.24015832 -0.2913549 0.5845812 -0.4900264 -0.1566084 0.07789847
-0.026639592 -0.08294661 0.20749271 -0.35880193 0.46076873 -0.7237928 -0.16246544 -0.16207434
0.83132553 -0.26377475 0.5289328 -0.2952538 0.7056974 -0.17797962 0.8985128 -0.22021335
0.09388843 0.004922376 -0.055644773 0.011200498 -0.13839436 0.08695212 -0.12134366 0.03674971
0.15411112 -0.013395618 -0.054196727 -0.029052868 -0.07383855 -0.019709904 -0.054928403 -0.007097502
0.07776114 -0.016450409 -0.14067644 -0.009162908 -0.2990024 -0.028032977 -0.44217205 -0.08895673
0.048156325 0.0035892478 -0.19716111 -0.020732986 -0.46931377 0.0022487533 -0.5961093 0.07452164
-0.0448007 -0.14254479 -0.11872134 -0.24504885 0.06823893 -0.15592425 0.10855101 -0.4915998
0.22964099 -0.76818335 -0.07764459 -0.1102278 0.011186669 -0.03669811 -0.011036396 -0.25558054
-0.043529153 -0.18224369 -0.1869008 -0.16422701 0.034505166 0.19383712 0.03766536 0.3271525
0.04682922 0.31007716 -0.0042489483 0.04248235 0.050150275 0.18957688 -0.04503007 0.37487775
-0.122837305 0.5610264 -0.06543436 0.055371996 0.02776451 0.24814497 -0.049299322 0.3995681
-0.25763193 0.59331274 -0.2561287 0.04032153 -0.636093 0.93894124 -0.2728881 0.4451497
-0.06364937 0.1344182 -0.042898472 0.0009801597 -0.31588015 0.13795723 0.027760692 0.07610571
0.11663143 0.042067476 0.10842449 -0.028545288 -0.21671742 0.08378934 0.008475487 -0.055964604
-0.029650616 -0.19027625 -0.2040168 -0.058546565 0.05254504 0.013085049 0.08024376 -0.14518899
-0.51029354 -0.5711242 -1.0810913 -0.4973664 0.33000314 -0.024216611 0.20648277 -0.07015084
-0.15016747 -0.2622257 -0.73152524 -0.30106792 -0.1149925 -0.23629698 0.9259358 0.87153906

sequential/dense_1/MatMul f4 [10, 20]
00000000: 9901 173f 2095 cdbe e6a4 653e 5f6c 55be
00000010: 34a1 81be d533 c63e a886 3abe 4eee f73e
00000020: 14ea 8ebf efdd 033e 0532 093f 48d9 843d
00000030: 7805 8fbe b042 12bf eb85 7a3f a17a 13be
00000040: 72e6 d1be 56c2 4abe 7abf e43e b4cd ad3e
00000050: a2d6 ac3e 9ad4 123f 997b 0f3f 0c42 603f
00000060: c340 773f 2e28 033e c37d 453f ebb0 d33e
00000070: a5c7 b33e ba52 c8bd 604d 46bd b28e 1f3f
00000080: 5828 2c3f 0ea1 3e3f bd8b 8b3e 8c39 153f
00000090: 3066 2b3f e2f1 6bbe f474 aa3c c01a be3d
000000a0: 6740 853e d724 a73d ae4f 503f 2b58 2b3f
000000b0: d245 2b3e d3f3 253f 39e4 a33e 06d7 953f
000000c0: 82c2 febe ee55 273f d439 213f d4ce 163e
000000d0: b1e2 133f c446 7a3e 89d4 dc3d bbfc 513e
000000e0: 95da c43e 7d18 373e 5ca4 543e f81b 833f
000000f0: 2e62 2fbe 2491 8abe 31dd 643e cee7 7dbf
00000100: 05de 3dbe a7c0 563e e433 c53e c4e5 963d
00000110: bdf1 c83f ee58 dc3d 5543 0fbf c248 cb3e
00000120: 3a46 9b3e c429 623e fa86 503f dfa7 46bf
00000130: ab61 bfbe 9524 453f cc30 563f 756c 91be
00000140: 2ec5 9a3f e365 413f 92d4 0d3f 6346 4b3f
00000150: 48a3 b03e 163c f33e a826 e13e 58b0 5b3f
00000160: 4e24 1f3e dbca 2b3d ca86 80be a01a 1a3e
00000170: 744c 80be dd22 9dbb cb40 7f3d 9245 1a3f
00000180: 70db edbd ba65 0f3f ae4c 223d 310a 223f
00000190: 0213 b53e 3f22 2dbe 7d11 b53e 9fd4 333e
000001a0: 0844 12bf e89c 9bbe f46b b93c 3872 2f3e
000001b0: b1f7 0fbf afa9 4c3f 946e 973d 6ea5 27be
000001c0: b147 f8be ab21 1fbf 2639 32bf f792 b03e
000001d0: 4218 0bbe ba08 c3bd 9cb1 66bf c431 bf3d
000001e0: 8515 c8bf fdcb 27bf 4667 aebe 7149 9d3e
000001f0: 0056 2abd fb17 4f3d 38c0 153f 0897 8dbf
00000200: 6fab 87be 7a8b 653e 3c66 263f 193d b43d
00000210: 4cf6 483f d7a6 3c3f 8399 723e 4290 623e
00000220: 4102 0c3f 7856 6d3e b086 233f 7091 3a3e
00000230: d06f bc3e 2332 923f 743e c53e 99d7 53bf
00000240: 7e0f d93e 7b2d 4ebe d05c 133f 9eb2 003e
00000250: 2cd0 ac3e 6932 c03d 8549 cd3e 3bc8 343f
00000260: 1db4 263e 387e 0d3f 5caf fb3d 4fe4 973e
00000270: 6845 d53e b4fd 953e 9b38 db3e 4267 703e
00000280: 24f1 d03e afd5 4bbf ee72 01bf 1c58 ecbd
00000290: ee96 2dbf 6c96 493f 1053 8e37 fb8b 253f
000002a0: de87 923e 5aba 863f aa36 74be 8911 f3be
000002b0: b50c 2bbf 6019 43bf d2a9 2bbd 4930 81bf
000002c0: dac3 1ebf 40bd 86bd 63ca e7bd d70f b7bd
000002d0: 7f8f ef3e df59 77bf 4d3c 1e3e 7564 4b3e
000002e0: 14f2 92bc e4fc cf3d 5882 adbd 5125 933e
000002f0: bf16 c8bd 51ff 11c0 d960 b23e f3b9 6ebe
00000300: 4b49 dfbd 3e9f 57be eba5 3a3e ef80 063e
00000310: 8ce5 da3b 0149 d3bd 7896 17be 7800 263f
0.5898681 -0.40152836 0.22426185 -0.20842122 -0.253183 0.3871142 -0.1821543 0.48424
-1.1165185 0.1287763 0.5359195 0.064867556 -0.2793386 -0.5713301 0.9786059 -0.14402248
-0.40996128 -0.19800696 0.44677335 0.33946002 0.33757502 0.57355654 0.5604797 0.8760078
0.96583194 0.12808296 0.7714502 0.41345915 0.35113254 -0.09781404 -0.048413634 0.6232711
0.6724906 0.744645 0.2725505 0.58290935 0.669528 -0.2304149 0.02080772 0.09282446
0.26025698 0.081613235 0.8137158 0.6693141 0.16725853 0.6482517 0.32010058 1.1706245
-0.49757773 0.65365493 0.62978864 0.14727336 0.5776778 0.24441057 0.10782725 0.20506565
0.38448015 0.17880435 0.20765823 1.024291 -0.17127296 -0.27063859 0.22350003 -0.9918183
-0.18541725 0.20971929 0.38516152 0.07368043 1.5698773 0.107591495 -0.55962116 0.39703947
0.30327016 0.22086245 0.8145596 -0.775999 -0.37379202 0.77008945 0.8366821 -0.2840306
1.2091424 0.7554609 0.5540248 0.79404277 0.34499574 0.4750678 0.43974805 0.85815954
0.15541193 0.041941505 -0.25102836 0.15049219 -0.2505833 -0.004795416 0.06231765 0.60262406
-0.1161412 0.560146 0.03962391 0.632968 0.35366064 -0.16907595 0.35364905 0.17561577
-0.5713506 -0.30393147 0.022634484 0.17133415 -0.5623732 0.79946417 0.07394138 -0.163717
-0.48492196 -0.6216075 -0.6961845 0.34487125 -0.13583472 -0.09523149 -0.9011476 0.09335664
-1.5631567 -0.65545636 -0.34063166 0.30720094 -0.041585922 0.05055998 0.5849643 -1.1061716
-0.2649798 0.22416487 0.6499975 0.08800716 0.7850082 0.7369208 0.23691373 0.22125342
0.5469094 0.23177516 0.6387739 0.18219543 0.36804056 1.142155 0.3852421 -0.8275085
0.42394632 -0.20134537 0.57563496 0.12568137 0.33752573 0.09384615 0.40095153 0.7061803
0.16279645 0.5527072 0.122893065 0.29666373 0.41654515 0.29295123 0.42816624 0.2347689
0.40808976 -0.7962293 -0.50565994 -0.11540243 -0.67808425 0.7874515 1.6966398e-05 0.6466672
0.28619283 1.052562 -0.23848978 -0.47474316 -0.66816264 -0.76210594 -0.04191 -1.009286
-0.62017596 -0.06579065 -0.11317899 -0.08938568 0.46789166 -0.9662151 0.1545269 0.1986254
-0.017937697 0.10155657 -0.08472127 0.28739408 -0.097699635 -2.2812083 0.34839514 -0.23313121
-0.109026514 -0.2105684 0.18227355 0.13135122 0.006680196 -0.10316659 -0.14803493 0.64844465

sequential/dense_2/MatMul f4 [6, 10]
00000000: 3947 30bf efea 353f 43bd 8d3d acb6 3dbe
00000010: f3da 853f a724 a4be de7b 79bf 6fd6 453f
00000020: c87d 333f 0ed3 d8be 8413 f33e ebbd 913e
00000030: 5bb2 4b3f 869e dcbd 7472 963e 8a13 b1bf
00000040: 5564 423f 4857 853e e295 30bf 7859 a0bf
00000050: 9215 f83d b222 403f 57bd a6bf 0b51 163f
00000060: b97a 58bf 475b 76be 3d48 153f 77c4 c23e
00000070: 26de 81bf 6611 9fbf b3c6 873f badb 513c
00000080: e231 083f d6e4 81bf c241 903e 0c9e 573e
00000090: 7979 91bf efff f8bd f454 ad3e 4a09 343e
000000a0: 603b fa3c baf8 7bbf 30bc febe 2c25 7f3f
000000b0: d45b 70bf 88af 01bf 26d2 f53d e125 b5be
000000c0: 0871 833f 26b9 ab3c 4204 6bbf 1ad4 a9be
000000d0: a166 b2be b804 eabf df21 bcbf f30a 943f
000000e0: 2ad6 413f 8564 5dbf 25bc d23e ce0a 773f
-0.6885868 0.71061605 0.069208644 -0.18526715 1.0457443 -0.32059214 -0.9745463 0.77280325
0.701138 -0.42348522 0.47475827 0.28465208 0.79569024 -0.107724234 0.29384196 -1.3834088
0.75934345 0.26043153 -0.68978703 -1.2527304 0.12113489 0.7505294 -1.3026532 0.5871741
-0.8456226 -0.24058257 0.5831335 0.38040516 -1.0145919 -1.2427185 1.0607513 0.012808735
0.53201115 -1.014796 0.2817517 0.21056384 -1.1365196 -0.121581905 0.33853877 0.17581668
0.03054589 -0.984264 -0.4975295 0.99666095 -0.9389012 -0.50658464 0.12002973 -0.35380462
1.0268869 0.02096231 -0.9180337 -0.33169633 -0.34843925 -1.828269 -1.4697837 1.1565841
0.75717413 -0.86481506 0.41159168 0.9650086
